Notebooks/best_model.pt (torch, 581026 bytes, 12 tensors)

branch_net.net.0.weight f4 [160, 300]
00000000: 2a63 643d e3be 1a3d c076 693d 0d8c c4bc
00000010: 1245 783d 895c 2939 d12f 15bd ac05 753d
00000020: 0857 c2bc f20d 6fbb 5966 a0bc 4eb3 d73a
00000030: 5a61 0c3d c526 783b 3a79 5a3d bd0d 5d3d
00000040: 8f46 2ebb ee77 773d d9ea 773d 1aef 98bc
00000050: 82e4 d93c 7435 223d 50dd ddbb 357c b2bc
00000060: 4d52 27bd d569 33bd c5d0 853d c57e 59ba
00000070: 1a15 32bd 10ee 0a3d 1be3 34bd 454c 1abc
00000080: da9d d73c c6dd 0abd e86b 4e3b 56ed e3bb
00000090: c2a0 5f3c 5de7 6d3d 81f6 293d fca4 133d
000000a0: 106b d73c c550 27bd caeb 67bc 76a9 383d
000000b0: c54e bcbc eb66 1f3d 1437 083d f579 eebc
000000c0: 9cc3 22bd 0b01 0bbd 4c7b 7fbb a6c3 463d
000000d0: 4ad1 10bd 4a25 413c 6e9b bd3c 0195 85bc
000000e0: 71a0 12bd 68c9 5b3c a49e aabc 29dc 03bd
000000f0: b97d fbbc 8b2c 40bc 9bff 2cbd df05 53bc
00000100: c132 b33c c7ff 7ebc 0379 793c c7ec 1f3d
00000110: d36e 07bd 8d86 923b 22ef dfbc 13b1 fa3c
00000120: ec3f f9bc 58b5 323c 4dce 11bc 5bfc 0e3d
00000130: 4e7a 9dbc db6e 8dbb 2a67 52bd b08a 633d
00000140: 84d7 203d 5b68 b2bc 8e19 3f3d 10b7 363d
00000150: 33c3 0a3d 5724 4ebd 425a 27bc 2d27 093c
00000160: fee6 f4bc 530c 00bc acc8 80bc b771 3fba
00000170: ab8f 4fbd 2224 0cbd 6d29 573d 65d6 ef3c
00000180: f61e 1fbd 4db3 2dbd 10eb ccbb b76a aa3c
00000190: 65c7 093d 7a4b 3cbd ac85 d03b 484a 3b3d
000001a0: 024a e13c 7f86 0e3b 650a 07bd 7daf d13c
000001b0: 0da9 04bb 7596 2d3d 16c1 a23b 3ca4 1c3d
000001c0: 3db9 de3c fbb5 c5bc 3262 39bd ad3a 043c
000001d0: 83e7 04bd 5680 f53b e1a9 37bc c758 183d
000001e0: 3d6f 93bc 9c2d 8b3c e32b a2bb b656 32bc
000001f0: 40c3 f6bc 02b6 423d 2e48 123c 070c 0dbb
00000200: 4caf c93c db52 0ebc 380a 2e3d 5b71 153d
00000210: d1bf 11bd 7a4f 37bd c33f ad3c 4655 1cbd
00000220: ae16 53bc 1c33 65bc add2 8cbc 2c25 103d
00000230: 9568 64bd 9dcc 543c 618e 243d 8459 4abd
00000240: 7557 673c d807 cb3b 7b9e 023d 1c97 70bd
00000250: df47 3dbd aad6 4cbd 2b1f a63c 224c b1bc
00000260: c632 953c d21b 99bb ce86 d8bc ac91 1d3d
00000270: a6cf 3cbd c832 46bc 3edc 0fbd f4be ae3c
00000280: a4d4 d1bc 7299 3ebb ab1f 123d 3876 263d
00000290: 8358 5e3c d675 17bd 7fdc 33bd 3b31 1abd
000002a0: 1b05 a53c 4c55 39bd 79cc 94bb 39c6 393c
000002b0: 594e 89ba c11c 42bc 0938 393b c30f a8bc
000002c0: 643a 0bbd 80bd d4bc 1ae7 09bd 24c4 3dbd
000002d0: 071e 58bd 9fa0 d3bc e547 c43a 7d59 06bd
000002e0: e360 ed3b 1a2a 01bd 6174 68bc d935 0b3d
000002f0: 84ea e23c 9643 4abd 1429 2d3d 78c7 8abc
00000300: 4c20 9fbc 0a94 eebc b6ba 0c3d 33f1 103d
00000310: d4ef 203d c96e 6e3d 00c8 b3bc dbcd cd3c
00000320: 829f 333d 0665 bcbc bfec 1f3d 6e8c 35bb
00000330: 7c13 033d 7505 1c3d 00a7 31bd 8478 bfbb
00000340: 3766 15bd 6f0e 083d f3f1 e73c 884b 243c
00000350: d6c5 d1bc de09 ce3c 1179 823d 4f49 9e3c
00000360: 9f05 223c 6222 babc 0301 cb38 9154 d5bc
00000370: 09ca d4bc 4d6b 5a3d cc58 0ebd db60 713c
00000380: 547e 293d 7aba 2abd beb2 20bd 2b4d f7bc
00000390: c2a4 f9bc b943 c33c eb64 753d d05e 1f3c
000003a0: 213f 193d 8632 10bc ab28 403d c9d5 acbc
000003b0: b6ca 753d 4bae fb3b 0ebf 8cbb 494c 173d
000003c0: eae1 03bb 8c6f 573d ec35 103d 632f 8b3d
000003d0: d06a 673d 5231 91bc 0ae4 51bc 7e81 b93c
000003e0: f659 2fbd 6df4 133c e63e c1bc b4bb 203d
000003f0: 2c35 25bc cd54 5e3d 5209 09bc 3c75 30bd
0.055758633 0.0377797 0.056998014 -0.023992563 0.060612746 0.00016151568 -0.036422554 0.059819862
-0.02372314 -0.0036476818 -0.019580053 0.0016456635 0.03427253 0.0037864905 0.053338267 0.05396818
-0.002659235 0.06041711 0.060526703 -0.0186687 0.026598219 0.039601758 -0.0067707673 -0.021787742
-0.040849973 -0.0438021 0.0653396 -0.0008296783 -0.043477155 0.03391844 -0.044161897 -0.009417598
0.026320387 -0.033902906 0.0031497423 -0.006955783 0.0136491675 0.058081973 0.04149485 0.036046013
0.026296169 -0.040848512 -0.014155338 0.045083486 -0.022986779 0.03891651 0.03325565 -0.029110888
-0.03973733 -0.03393654 -0.0038983403 0.04852643 -0.035355844 0.011788676 0.023145404 -0.016306402
-0.03579754 0.013414718 -0.020827599 -0.032192383 -0.030699598 -0.01172937 -0.042235952 -0.012879818
0.021874787 -0.015563912 0.015226605 0.039044168 -0.033064675 0.004471606 -0.027335707 0.030602014
-0.030425988 0.0109074935 -0.008899284 0.034908634 -0.019223358 -0.0043161935 -0.051367916 0.055552185
0.03926803 -0.021778276 0.04665523 0.044608176 0.033877563 -0.050327625 -0.01021439 0.008371157
-0.029895302 -0.007815438 -0.015720688 -0.00073030166 -0.05067412 -0.034214146 0.05252974 0.029277036
-0.038847886 -0.042407323 -0.0062536076 0.020802839 0.033637423 -0.045970418 0.006363591 0.045725137
0.02750111 0.0021747646 -0.032968897 0.025596375 -0.0020242364 0.042379815 0.0049668653 0.038242564
0.027187938 -0.024134627 -0.045259662 0.00807063 -0.03244735 0.0074921055 -0.011209936 0.03719404
-0.017997378 0.016989522 -0.0049490794 -0.010884931 -0.0301224 0.047536857 0.008928342 -0.0021522061
0.02461972 -0.0086867465 0.042490214 0.036485057 -0.03558332 -0.04475353 0.021148568 -0.03816726
-0.012883825 -0.013989236 -0.017190302 0.0351917 -0.0557638 0.012988237 0.040174846 -0.049401775
0.0141199725 0.0061960034 0.03188942 -0.05873786 -0.04621112 -0.050009407 0.020278534 -0.021642748
0.018212687 -0.004672506 -0.026431467 0.038469 -0.046096466 -0.012097068 -0.03512215 0.021331288
-0.02561409 -0.002908316 0.035674732 0.040640086 0.0135709075 -0.03697761 -0.043911453 -0.037644606
0.020144036 -0.04524736 -0.0045409766 0.011338764 -0.001047562 -0.011847676 0.002826216 -0.020515328
-0.033991233 -0.025969267 -0.03366766 -0.046329632 -0.05276301 -0.025833426 0.001497504 -0.032800186
0.007244216 -0.03153429 -0.014187903 0.0339869 0.027699716 -0.04938086 0.042275503 -0.016940817
-0.01942458 -0.029123325 0.03435775 0.035386276 0.039291218 0.05821112 -0.021945953 0.025122574
0.04385329 -0.02299739 0.039044138 -0.002770211 0.032001004 0.03809114 -0.043372154 -0.005843224
-0.036474433 0.03321689 0.028313613 0.010027774 -0.02560703 0.02515119 0.06370748 0.019322066
0.0098890355 -0.022721473 9.679983e-05 -0.026041301 -0.025975244 0.053324986 -0.034752652 0.014732565
0.04138024 -0.041681744 -0.03923296 -0.030188164 -0.03047407 0.023836004 0.059910696 0.009727195
0.03741372 -0.008801108 0.046913784 -0.021098034 0.060007773 0.0076806895 -0.0042952364 0.036937986
-0.002012367 0.052596614 0.035207674 0.06796148 0.05649835 -0.017723713 -0.012810716 0.022644754
-0.042810403 0.009030444 -0.023589563 0.039241508 -0.010083478 0.05428009 -0.008364039 -0.043080553

branch_net.net.0.bias f4 [160]
00000000: 68eb 503d a7dc 30bd 2b52 a539 0845 64bd
00000010: c247 4cbd 81b5 f13c a855 963b 4922 413d
00000020: 5192 1abd 473e 04bd ab75 eaba 4724 83bc
00000030: 60e7 a53c b750 cabb a0d5 5dbb 637a 2f3d
00000040: b7ed 37bd fa5e 25bd 1790 b53b 1ac5 84bc
00000050: 4769 613d 7fd3 ea3c bfdd bf3a acc0 23bd
00000060: 0808 663c e52d 893c f425 533c f224 a13c
00000070: a189 cb3b 8320 ba3c 38fd 9fbc 326f da3c
00000080: bf9b 403d 9f2c f4bc 8558 2f3d 870c c63c
00000090: f15a 46bc c661 033d f56c 22bd c2c2 4fbc
000000a0: 282c 3e3b 033b e53b 6eb2 3b3d b669 b13b
000000b0: 3222 243c 7d2d f0bb 53b4 083d 3ebf 063d
000000c0: 07f6 013d bee4 29bd cff7 fdbb 98d3 9dbc
000000d0: b04c 9fbc 1dad 983c 18a9 e03c e08f 2cbd
000000e0: 1d3a 81bd 4854 2dbd 79f4 7e3b a5ab 103c
000000f0: d987 e23c f8d6 253d 9a3e 0ebd 6c90 f8bc
00000100: 070f 643c 5596 773c 273e 3f3d e06c 0b3d
00000110: 0406 513a 4d5f 403d 766c 2c3d 4cf4 19bd
00000120: b1b0 073d 2028 323d c02e 3c3d 348c 113d
00000130: de48 80bd 15e5 23bb b999 c3ba 4835 d8bc
00000140: 7a8e 373d 7e0c 73bd d323 8f3c 3dd3 62ba
00000150: 1e64 83ba b9a1 163c 8e2a a2bc 43e3 073c
00000160: b745 4ebd c716 3dbd ff57 31bc 3596 433d
00000170: f7a9 db3c ecd6 93bc 2392 063d cfc8 4dbd
00000180: 0dc2 4bbc 0d66 82ba 2abb 583d a34d 1c3d
00000190: d364 88bc 42bd cfbc 1935 a23b 65f0 60bd
000001a0: 3941 ce3c 86e7 2e3c be48 413d 159a 723c
000001b0: c5f1 0639 6819 31bd fccf 033c e91e 783d
000001c0: aedc 13bb 6677 d9bc a33f b63c e19d 17bd
000001d0: 920c 1e3c db91 9c3c 7fea 4abd 7fca 0d3b
000001e0: b9ca a63c addd 583d 022d 40bd 054e 46bb
000001f0: c897 53bd 8ebb 0bbd 71bf 5c3b 9bb3 5ebd
00000200: 76b9 763c 54a7 55bd 89c2 32bd c077 153d
00000210: d88f 863c d954 77bd b505 263d fcc6 a5bc
00000220: 8824 543b d9fe a23c 93e7 2abd cea5 01bc
00000230: 9bd3 17bd 5346 b33c 9510 b13c 2625 5a3c
00000240: b546 31bc 6cb5 8c3c 28b5 543d c29f 073d
00000250: c654 383c e986 d53c 66ce 133d 6fbd 57bd
00000260: 0d06 1d3d fbbc e5bc 17f3 2ebd 8898 223d
00000270: 94bb 32bd ae41 33bd 0c3a 3f3d 542b cf3c
0.05100575 -0.04317918 0.00031532472 -0.055729896 -0.04987312 0.029505493 0.0045878477 0.047151837
-0.037737194 -0.032285955 -0.0017887851 -0.01600851 0.02025193 -0.0061741727 -0.0033849254 0.042841326
-0.044904437 -0.04037378 0.0055408585 -0.016207267 0.05503204 0.028665302 0.0014638229 -0.039978668
0.014040001 0.016745517 0.012887467 0.019670937 0.006211475 0.02272058 -0.019529924 0.02666435
0.04702353 -0.029806433 0.04280903 0.024175895 -0.012106643 0.032075666 -0.03965469 -0.012680711
0.0029018018 0.00699556 0.04582446 0.005414213 0.010017918 -0.0073296414 0.033375096 0.032897227
0.03172877 -0.04147791 -0.0077504884 -0.019265935 -0.019445747 0.018637234 0.02742438 -0.042129397
-0.06309912 -0.042316705 0.0038903041 0.008829986 0.027652668 0.040488213 -0.03472767 -0.030342303
0.013919598 0.015111526 0.046690132 0.03403938 0.00079736137 0.046965886 0.042095624 -0.037586495
0.03312749 0.043495297 0.04594302 0.0355341 -0.06263898 -0.002500837 -0.0014923132 -0.026392594
0.04481361 -0.059338085 0.017473137 -0.0008652693 -0.0010024344 0.009193831 -0.019795682 0.0082939295
-0.050359454 -0.0461643 -0.010824203 0.04775067 0.026814444 -0.018046819 0.03285421 -0.050240334
-0.012436402 -0.0009948626 0.05291287 0.038159978 -0.01664964 -0.0253588 0.0049501774 -0.054916758
0.025177585 0.010675317 0.047188513 0.014807244 0.00012869302 -0.04323712 0.008045193 0.060576353
-0.0022561955 -0.026546191 0.022247141 -0.0370158 0.009646552 0.019112518 -0.04954004 0.002163559
0.020360338 0.05294578 -0.046917923 -0.0030258906 -0.05165842 -0.034114413 0.0033683444 -0.054370504
0.015058866 -0.05216153 -0.043642554 0.036491156 0.016426012 -0.06038365 0.040532786 -0.020236485
0.0032370407 0.019896911 -0.041724753 -0.007913066 -0.037067037 0.02188412 0.021614352 0.013314521
-0.0108200805 0.017176352 0.051930577 0.03311134 0.01125068 0.026065307 0.03608551 -0.052670892
0.03833585 -0.028044214 -0.042712297 0.039696246 -0.04363592 -0.04376381 0.046686217 0.025289215

branch_net.net.3.weight f4 [160, 160]
00000000: 8e5d 463d 35cf 4a3d ce13 3a3d b225 083c
00000010: 9b6a 973d 25ce 00bc 5e96 80ba 8bb5 783d
00000020: c216 803d 2e7d 903d b6e8 7c3d 76fc 9d3c
00000030: fe4a c7bc 13ea 363d 6e71 593d 9f8a 10bd
00000040: 4301 a23d b50c 383d 2ae0 30bd 4cd1 82bd
00000050: c7d4 383d 0e3b 103c 263a 2ebd 05e9 6b3d
00000060: 6833 1dbd 44a0 82bd 8338 443d 3c94 01bd
00000070: 0405 0f3c 4cfe 03bd b74f de3c 8759 ac3d
00000080: 42ed 25bd b0de 883d 5dcd 953d fc27 74bd
00000090: 7b87 51bd 71f8 68bb 0733 01bd 521b 4a3d
000000a0: 1ee1 ebbb bb0c c73c 0d24 12bd f264 38bd
000000b0: f77a 8f3c b1c3 ec3c 69f7 203d 3003 a2bc
000000c0: b764 5bbd 4f25 7d3d a1c3 8cbd abfc 33bb
000000d0: ddc6 e13c b6e3 d73c 81db 15bd 39ab 98bd
000000e0: 3d62 97bd a57b 96bd 652c d4bc 8739 33bd
000000f0: a98b 0fbd 0bef 4cbb 83c0 f13b f1be 8abd
00000100: 6b8c 193c b659 793c bd8a 02bd becc 8fbc
00000110: 4184 423c f3fc 27bd a1d2 7f3c 2046 e53c
00000120: 1806 48ba ed5c c63c 5b44 023c 021c 4ebd
00000130: b65a 2b3d 5700 4fbd cf7c 733c ba71 643a
00000140: a110 81bd c95a 843d 4c1a 2dbd 4aac 35bd
00000150: 98ce 893d abad 9bbd 4d7c 023d 478e b33b
00000160: 65de 383b 0eba 9a3d 5bea ee3c 51a8 2ebd
00000170: c95d ba3c ace5 1f3d a20d 453d e2cb 36bd
00000180: f1e8 69bd bba5 75bc 36ec 513d 8978 10bc
00000190: bbaf a23d 788a 6ebd c6ed a4bc 40f2 e8ba
000001a0: 4a4f 17bc 2a1a 8f3d 6cfc 003d 92fa 9f3c
000001b0: 5092 af3c 057a 293d 33da 983c 9282 0c3d
000001c0: 0c32 36bd 8ac5 82bc 8e5d 7c3d a47a 403d
000001d0: 6256 41bd 8597 2dbb b846 ecbc 39ce 33bd
000001e0: f3f3 793d 106b 303d 124e 213b 4281 513c
000001f0: f895 ebbc c457 c63b c4ca 6c3b 0a46 94bd
00000200: 601c 38bd 9d71 6bbd 55a4 d8bc a2b5 433d
00000210: b223 583c 14a9 0bbd 11db 8f3d 2f97 6d3d
00000220: 09b4 52bd 1b6e 6d3c 1fc4 82ba 9f3b 0c3d
00000230: 685e 7cbd 8453 303c a866 0d3c 441d f2bb
00000240: 5782 8cbd 1ade 923d d83f 8bbd de57 afbb
00000250: 9d98 c7bc 2c15 9bbd 9e8d 13bd ce01 a73c
00000260: 1435 b13b 122a ac3d 2701 a1bd eb1c f4bc
00000270: 60dd e93c 5247 383d 2a7d 40bd 679e d1bc
00000280: c363 413d 8640 27bd 520d 3abd 03b9 78bd
00000290: 9e03 6cbb 0f04 52bd 70f6 413d 4613 833d
000002a0: 7e9e 563d 178d ecbc cd4c 8cbc 1350 9ebd
000002b0: ef64 81bc a858 25bc fb52 953a 237f 473d
000002c0: 09e0 253d 269e 293d 6507 973d 161b 963d
000002d0: 9f35 4ebd a759 fb3c 44ec 1c3d 5832 6abd
000002e0: 316b 0f3d ae54 65ba 0116 50bc 1698 353c
000002f0: 73de 71bd 18f2 7abd 5afd 56bd 4b2e 75bd
00000300: af24 923d 3720 98bc ca37 8a3d 2763 08bd
00000310: 7194 a7bc dcf1 b83b 227f 9bbd 5240 3abd
00000320: 6cf0 30bb 9374 49bd 74c1 133c 8f61 42bd
00000330: 78fe 893c caaa 22bc 06e1 823d 9cb6 f4bc
00000340: 7d07 1fbd c365 9ebd bdfe 21bc c153 153c
00000350: 5200 513d e1e9 25bd 7ad0 16bc 2d3d 0cbd
00000360: d789 35bd 3795 c73b 3698 d73b 8801 f7bc
00000370: 136c c5bb 639f 1c3d e56e 983c 5cdf 6dbc
00000380: b196 0d3d 1111 623d 2d62 a63b db2e 8f3d
00000390: 186b efbb bf23 2e3d 637c ffbc a39d cd3c
000003a0: 8234 013d c19e 873d af8c 34ba c147 e1bb
000003b0: 37e3 b7bc 772d adbc 49ef 8a3d df82 8a3d
000003c0: 89d2 58bd 556f 2ebd f2fa a2bc 5024 71bd
000003d0: 3fb2 363d 3d45 3b3d 5aa7 d83b f489 2dbb
000003e0: 9c06 95bc ce3b 233d 115f 903c bec5 dbbb
000003f0: c70e 27bd 15bc 94bc 3b62 29bd ee0f 873d
0.048429064 0.049514014 0.045429043 0.0083097685 0.0739338 -0.007861649 -0.0009810438 0.060720008
0.06254341 0.07055126 0.061745368 0.019285422 -0.024327751 0.044656824 0.05308669 -0.03528845
0.07910397 0.044933993 -0.04318253 -0.063875765 0.045124795 0.008803142 -0.042535923 0.05759527
-0.038379103 -0.063782245 0.047905456 -0.031635508 0.008729223 -0.03222494 0.02713762 0.084155135
-0.04050947 0.06683099 0.073145606 -0.059608445 -0.051154595 -0.0035548473 -0.031542804 0.04934246
-0.007198467 0.024298063 -0.035678912 -0.045018144 0.017514689 0.028901907 0.03929845 -0.01977691
-0.053562846 0.06180316 -0.06873251 -0.0027463834 0.027560646 0.026353698 -0.03658629 -0.07454533
-0.07391784 -0.07347802 -0.025900075 -0.043756034 -0.0350453 -0.003127041 0.0073776855 -0.067747004
0.009371857 0.015219143 -0.031870592 -0.017553683 0.011872352 -0.041012716 0.015614183 0.02798754
-0.00076303026 0.024214232 0.0079508675 -0.05031968 0.041834556 -0.050537433 0.0148613 0.00087144563
-0.06302 0.064626284 -0.042261407 -0.04435376 0.06728858 -0.07601484 0.031856824 0.0054796073
0.002820873 0.07555018 0.029164484 -0.042640988 0.022749798 0.03903739 0.048108704 -0.04462803
-0.057106916 -0.0149931265 0.05125066 -0.0088178 0.07943674 -0.058237523 -0.02013291 -0.0017772391
-0.009235213 0.06987412 0.03149073 0.01952866 0.021432072 0.041376133 0.018658733 0.03430421
-0.044481322 -0.015963335 0.06161266 0.04699196 -0.04720152 -0.0026488018 -0.028842315 -0.04389784
0.061023664 0.043070853 0.0024613184 0.012787165 -0.028758034 0.006052943 0.00361316 -0.072399214
-0.044948936 -0.057481397 -0.026445547 0.04778064 0.013192104 -0.034096792 0.070242055 0.058005508
-0.051441226 0.014491583 -0.0009976662 0.034236547 -0.06161347 0.010762099 0.008630432 -0.0073887426
-0.06860798 0.07171269 -0.067992866 -0.0053510508 -0.024364764 -0.075723976 -0.03602373 0.020386603
0.0054079387 0.08406462 -0.07861548 -0.029798945 0.028547943 0.04498989 -0.046994366 -0.025588227
0.04721428 -0.04083302 -0.04542286 -0.060723316 -0.0036012898 -0.0512734 0.04735416 0.064001605
0.052397244 -0.02887587 -0.017126465 -0.07730117 -0.0157952 -0.010091938 0.0011392528 0.04870523
0.04049686 0.041410588 0.07374457 0.07329385 -0.050344106 0.030682398 0.038311258 -0.057176918
0.035014335 -0.0008748275 -0.012700559 0.011083623 -0.059050035 -0.061266035 -0.05248771 -0.0598586
0.07135903 -0.018570049 0.06748922 -0.033297684 -0.020456525 0.0056440663 -0.07592608 -0.045471497
-0.0026998771 -0.04918344 0.009018291 -0.04745632 0.016844973 -0.009928415 0.06390576 -0.029872231
-0.0388255 -0.07734253 -0.0098873945 0.009114207 0.051025696 -0.040506247 -0.009204978 -0.03423803
-0.044320907 0.006090786 0.0065794243 -0.030152097 -0.0060248463 0.03823794 0.018607566 -0.014518585
0.03456754 0.055192057 0.0050776214 0.06991359 -0.0073064677 0.04251456 -0.031187242 0.025099581
0.031544216 0.06622077 -0.00068874186 -0.006875009 -0.022447212 -0.021139843 0.06783921 0.06763243
-0.052935157 -0.042586643 -0.01989505 -0.05887252 0.044603582 0.045720328 0.0066117467 -0.0026479932
-0.018191628 0.039851956 0.017623456 -0.0067069223 -0.040785577 -0.01815609 -0.041353446 0.06594835

branch_net.net.3.bias f4 [160]
00000000: 0548 88bc b7cb 783d 874a 573d 5442 123d
00000010: a54a 53bd 1be6 91bd 7fa1 793d 6b5f b43c
00000020: 97e3 85bd d077 363d ccc3 353d 375d 58bb
00000030: ad7d 8ebc b23e 1b3d 8491 2b3d 878f 3c3d
00000040: 5971 8abd 4f42 92bd 11b7 32bd 1cf6 5cbd
00000050: c683 8b3d 96bf 6fbd c321 223d f6df 183d
00000060: cef2 743c 2c84 8abc 1cd5 003d 3fff 0dbd
00000070: e5b6 903d efee 62bd 0e08 c23c a85c dfbc
00000080: eaaf cdbc 872b 6d3c 9fb1 703d 97f2 d6bc
00000090: 92f6 4cba 4836 88bc eab5 60bd 67e9 9d3d
000000a0: d2d1 1cbc 9010 2fbd 288d efbc e58a b2bc
000000b0: 67bc 413d 184b 0d3d 61f3 82bd 97aa 953d
000000c0: e27f 6bbd 9767 e33c b073 77bc 3765 3e3d
000000d0: b546 eebb 95d0 df38 2602 25bd 0c53 d83b
000000e0: e3b0 1dbd 9004 5dbd 1d3a 1dbd 822b 80bd
000000f0: ff01 453d f9c0 063d 3718 01bd 1a3b fe3c
00000100: c571 a63c c1eb 6a3c d33e 87bd 984e 353d
00000110: 5f3a 28bd febc de39 7384 35bd 348c 793d
00000120: 1d55 6c3d 994c b23c 4366 1b3d 4c5f 59bc
00000130: 7442 70bd 05d8 e9bc efd2 43ba ab62 8e3d
00000140: d894 a9bd bb4e 673d 7348 f0bc f874 f93c
00000150: 4261 3cbd 9dd3 2f3d ad52 44bb 624a 303d
00000160: 1ba4 9ebc dc5d 43bd cb49 f8bb 6c06 993c
00000170: 9212 763d a618 a5bd e44f 8e3d fa22 8b3d
00000180: aa38 223d 7afb 59bd 5c1d 3a3d 264a f83b
00000190: 69fd 95bd b5f6 473d bead 853d f748 8cbd
000001a0: 8e7a 72bd 6d9c 943c e748 293d c597 57bd
000001b0: a68c 103d ebca 87bc 4f5d 74bb 34f2 d43c
000001c0: db0c 78bd a029 0f3d 23ef 2e3d 4842 cebc
000001d0: 0724 21bd bf63 96bd c99d aa3c e676 7d3d
000001e0: 759f 6dbd 4ee4 4dbd 7dc1 953d d161 51bc
000001f0: ff49 3ebd 74fb 8b3d a3a1 6cbc 836c 0b3d
00000200: 251d 63bd 07e8 22bd 51a9 f43c 295e 8bbd
00000210: bf90 a23d 7099 f03c 2be3 163d e72f 983d
00000220: 203d 82bd 9410 063d b9ab 8ebd a5fd d8bc
00000230: 2ee0 b8bc 0677 25bd 502b 8a3d e135 4d3d
00000240: 17ee 96bb 4db7 463d 12c0 3c3d 85dc 63bc
00000250: a7a5 1bbd 5a69 293d 57c7 463d 8990 8ebd
00000260: 4a6e 8e3d b0a5 5abd 0cc1 4c3d aabe 0a3c
00000270: 7547 333d fe44 99bd a5dd 543d e543 863d
-0.016635904 0.060741153 0.05256131 0.035707787 -0.05158486 -0.07123967 0.06094503 0.022018155
-0.0653755 0.044547856 0.04437618 -0.0033014545 -0.017393911 0.037901588 0.04188682 0.046035316
-0.067599006 -0.071415536 -0.043631617 -0.053945646 0.06812243 -0.05853232 0.03958298 0.03732296
0.014950467 -0.016908728 0.031453237 -0.03466725 0.07066134 -0.055403646 0.023685481 -0.027265862
-0.025108296 0.01447571 0.058763143 -0.026238723 -0.0007818724 -0.016627446 -0.054860987 0.077105336
-0.009571509 -0.042740405 -0.029242113 -0.021794746 0.047298815 0.034495443 -0.06394077 0.07307928
-0.057495005 0.027759356 -0.015103266 0.046483245 -0.0072716125 0.0001067232 -0.040285252 0.006601697
-0.03849877 -0.05395943 -0.0383855 -0.062582985 0.048097607 0.032898877 -0.031517234 0.031034041
0.020317921 0.014338435 -0.0660378 0.044264406 -0.041071292 0.0004248395 -0.044315767 0.060924724
0.057698358 0.02176504 0.03793932 -0.013267349 -0.058657125 -0.028545389 -0.0007470091 0.06952413
-0.08280343 0.056471568 -0.029331421 0.030451283 -0.04599119 0.04292642 -0.0029956505 0.043039687
-0.019365361 -0.047696933 -0.007577156 0.01867982 0.060076304 -0.08061342 0.06948832 0.067937806
0.03960482 -0.053218342 0.045438156 0.0075771986 -0.07323725 0.048819263 0.06527279 -0.068498544
-0.05919891 0.018140996 0.04132929 -0.052634973 0.035290383 -0.016576251 -0.0037287062 0.025994398
-0.060559135 0.034951806 0.042708527 -0.02517809 -0.039341 -0.07343244 0.020827191 0.06188097
-0.0580134 -0.050266556 0.073122956 -0.012779669 -0.046457287 0.0683507 -0.014442834 0.03403903
-0.055447716 -0.03977206 0.029865893 -0.06805069 0.079377644 0.02937004 0.036837738 0.07431012
-0.06359315 0.032730654 -0.06966347 -0.026488135 -0.022567835 -0.040396713 0.067465425 0.05010021
-0.0046060192 0.048514653 0.04608161 -0.013907556 -0.037999775 0.041360237 0.04852995 -0.06961162
0.0695463 -0.05338067 0.04998879 0.008468309 0.04376932 -0.07483862 0.05196919 0.065559186

branch_net.net.6.weight f4 [95, 160]
00000000: c39d 643d 246d 81bc 82f0 893d 8eb7 a2bc
00000010: ad75 9dbd b10d 86bc 954f 613b 38a1 05bd
00000020: 9c7c 523d fffd f23c f2cf 353d c8c6 603d
00000030: 400d 2ebd 7531 8dbd 3780 b63d 58d7 56bc
00000040: e082 1d3c f9ec 4d3d d186 35bd 9516 df3c
00000050: bdb2 e3bc 40c0 253c 934c d5bc 1e22 6e3d
00000060: 9459 333d 7d8f 19bc 3f6d 28bd 3187 15bd
00000070: 5832 093d 3255 3aba ad7e 86bd 8470 ffbb
00000080: ac59 3cbd a5c4 a13d 8405 903c 3cc1 0c3c
00000090: 469d 5b3d 87e0 01bd 3c12 2e3b 9610 37bd
000000a0: c066 75bd 095e df3c 2244 46bc a58d 043d
000000b0: 0ab3 143d 76b6 22bc 4803 8cbd b69a efbc
000000c0: ec21 853d 0ae4 eebb 7bd1 49bd 7904 41bd
000000d0: 19b9 0c3b 6a41 83bd 632c 6dba 70f8 3a3d
000000e0: a54b 77bd 144e 55bd c81d b6bb 7474 603d
000000f0: 4842 b93c 6ed4 6cbd 4690 a3bc b507 b9bc
00000100: 2f35 9cbd f581 88bd b303 103c 6f1f 923c
00000110: a14b 47bd 48fa 93bb 3d37 293d 9e86 14bd
00000120: 946e 4fbc d5f5 e4bc b3e8 c8bb e9db 29bc
00000130: 3e78 583c 23fa 863d cfa0 dcbc f341 0abd
00000140: 2323 4cbd a36b 7f3d 513f abbc 4073 953d
00000150: 4178 6dbd 9fc0 353d b692 14bc 29a5 7a3d
00000160: 8618 a7bd 3b3f 63bd 86f6 853d 66a8 36bd
00000170: 4c47 813d f6b3 853b 6be6 f0bb d4eb d9bb
00000180: bf87 743c 64a5 c1bb b718 76bd 419c 993b
00000190: 015d 5d3d f2e7 9e3c c9ee bbbb 6247 23bc
000001a0: 72de e23c 0aed 69bd 701a 263b ccf6 2f3c
000001b0: 672c 87bd 56bb 6bbd c3fc 8c3d 7c9d 58bd
000001c0: 6e06 803d 7d26 52bb d1e2 01bd 9218 a93c
000001d0: a69a 7b3d 5b9e 7a3b 4cad d93c e90b 673d
000001e0: de27 8abd fcd8 a93d b27f 363d 57a1 3cbd
000001f0: 2bc7 f6bc a79c ae3c f759 f73c ee7c 283d
00000200: 3ae6 4b3c f86d 0dbd c022 1f3d 24ab 55bd
00000210: 0f09 23bd f282 c5bc 454c 6e3d 1031 9a3d
00000220: d0d8 563c ccf2 123c 3a11 eebb eee0 463d
00000230: 5089 7a3d 8fe6 7b3d c955 36bc b0a7 a1bc
00000240: e226 9f3d 1706 783d 620a 0cbd 1607 4e3d
00000250: 1623 0ebc cc8f 933c c9a6 23bd 7458 90bd
00000260: f738 8bbd a67d 383d 9db8 13bd 7267 22bc
00000270: bfb5 533d 34e8 ecba 64a8 00bd 36fd 813d
00000280: acaa 51bd 6bd2 c4bc 57ea 2fbc b5e6 2bbd
00000290: a9bd 48bd 7586 c33c 3d14 883d e68e 99bd
000002a0: beb9 85bd 9e2b 3abd fd5b 93bd 919d 8f3c
000002b0: 25d2 90bd 2516 72bd 0234 a53d b2bc 9dbd
000002c0: 4c4a f4bc b4a0 5dbd 1213 fc3c 21a4 5cbd
000002d0: 1d21 803d c626 f4bc 3cbb 99bd 5fae 613c
000002e0: 5a6c 4b3c 2828 063d 737a 093d 03c5 3b3d
000002f0: 1b1c 27bd 25cb a038 c6f2 f23c 2ce0 5fbc
00000300: d6f0 42bd debb da3c aaee 82bd 4feb 343d
00000310: f522 963d c264 4b3a 7475 52bc 1e1f 333c
00000320: e699 10bb f5ad 48ba c391 423d 77ba c9bc
00000330: 453f 9e3c 9090 993b 7dc7 3a3d a12b 7f3d
00000340: ee77 883c 89f3 46bc c322 2b3b 281a d23c
00000350: 680a 893c ba15 983d a8e5 9c3d e3ea 0ebd
00000360: 4b18 9e3d c91a cb3c 920b 763d 63d0 933d
00000370: 03f9 883d 3e42 f33b 930c 9abd 8bed eb3b
00000380: 9eac 51bd 6875 bf3b 5035 513d b7c9 863d
00000390: 2243 6e3d df9e 9b3d eb0f 2ebd e471 3d3b
000003a0: 0834 bbbc 7663 913d 3e86 81bd 5312 8f3d
000003b0: 7478 90bd bf6b 8abd 0f34 5f3d fe03 1cbd
000003c0: ab2f 09bd 6a13 a3bd 101e 143d 6524 263d
000003d0: 144f 6ebd a53f 8a3d 3d17 03bd a156 043d
000003e0: 94f9 e03b 9ccd e3bc 9609 76bb 18d7 50bd
000003f0: bc62 70bc 3da9 863d ebbd a53d 9c5c abbc
0.055814516 -0.015799113 0.06735326 -0.019862916 -0.076884605 -0.01636395 0.003437971 -0.032624453
0.051388368 0.02966213 0.044387765 0.054877073 -0.042493105 -0.06894199 0.08911174 -0.013112865
0.009613723 0.050274823 -0.044318024 0.027232448 -0.02779519 0.010116637 -0.02603749 0.058138005
0.0437866 -0.009372589 -0.04111981 -0.03650588 0.033495277 -0.0007108032 -0.0656713 -0.0077953953
-0.045983955 0.07898835 0.017580755 0.008590993 0.053616785 -0.031708267 0.0026561162 -0.044693552
-0.059912443 0.02726652 -0.012101205 0.032361645 0.036303557 -0.009931197 -0.06836563 -0.029248577
0.06500611 -0.007290368 -0.04927204 -0.047123406 0.0021472631 -0.06408961 -0.00090474467 0.045647085
-0.060374875 -0.052076414 -0.0055577494 0.05479856 0.022614613 -0.057819776 -0.019966256 -0.022586683
-0.076273315 -0.06665412 0.008789944 0.017837254 -0.04865611 -0.00451592 0.041312445 -0.036261193
-0.012660641 -0.027949253 -0.0061312555 -0.010367372 0.013212262 0.065906785 -0.026932148 -0.0337543
-0.049838196 0.06235851 -0.020904215 0.07297373 -0.05797601 0.04437315 -0.009068182 0.061192665
-0.08158974 -0.055480223 0.06541161 -0.04459419 0.06312427 0.004080291 -0.0073516867 -0.0066504274
0.0149249425 -0.0059096087 -0.060082164 0.0046878164 0.054043774 0.01939771 -0.0057352525 -0.009965749
0.02769396 -0.057110824 0.0025345348 0.010739993 -0.06600266 -0.057551704 0.06884148 -0.052884564
0.06251226 -0.0032066398 -0.03171045 0.020641599 0.06142678 0.003824136 0.026571892 0.056407843
-0.06745885 0.082933396 0.044555373 -0.046052303 -0.030124268 0.021314932 0.030194266 0.041134767
0.012445027 -0.034528702 0.0388515 -0.052165166 -0.03980356 -0.024110291 0.058178205 0.07528889
0.013113216 0.00896902 -0.007265237 0.048554353 0.061166108 0.061499175 -0.011128851 -0.01973328
0.07771088 0.060552683 -0.03418959 0.050299726 -0.008675357 0.018012904 -0.03995398 -0.07048121
-0.067979746 0.045041703 -0.036064733 -0.009912359 0.051687 -0.0018074573 -0.03141059 0.06347124
-0.051188156 -0.024026116 -0.010737023 -0.041968066 -0.049009 0.023867825 0.06644485 -0.07497959
-0.06529568 -0.045451753 -0.0719528 0.017531188 -0.07071332 -0.05910315 0.0806656 -0.077020064
-0.029820584 -0.054108337 0.030770812 -0.053867463 0.06256316 -0.029803645 -0.07506415 0.013774483
0.01241597 0.03275314 0.033564042 0.045842182 -0.040798288 7.667233e-05 0.029656779 -0.013664287
-0.04759296 0.02670091 -0.06393178 0.04416972 0.07330886 0.00077588495 -0.012845386 0.010932712
-0.0022064387 -0.0007655316 0.04750229 -0.024625046 0.019317279 0.0046864226 0.045600403 0.062297467
0.01665875 -0.012143024 0.002611325 0.025647238 0.016728595 0.07426019 0.07660991 -0.034891974
0.07719477 0.024793046 0.060069628 0.07217481 0.0668812 0.007423668 -0.075219296 0.007199948
-0.05119001 0.0058428533 0.051076233 0.06581443 0.05816949 0.07598662 -0.04249565 0.0028906995
-0.022851959 0.07099049 -0.06324433 0.06985917 -0.070542246 -0.06758832 0.054493006 -0.038089745
-0.033492725 -0.07962687 0.036161482 0.040562052 -0.058180884 0.067504205 -0.032004584 0.03230918
0.0068656895 -0.027808003 -0.0037542335 -0.05098638 -0.014671978 0.065752484 0.080928646 -0.020918183

branch_net.net.6.bias f4 [95]
00000000: a2db 953d 6b5b aa3a 6a22 233d 95b0 913d
00000010: effa 843d 731f 123d c574 19bd 5031 903d
00000020: e54d f7bc 34ee 8fbd b650 c2bc 02cb d13c
00000030: db18 e43c 52f7 2abd 24cb 363d cbe1 863d
00000040: e9a2 6e3c b0dc 3f3d 19f9 2c3d 71e0 2a3d
00000050: 7410 1e3d ac23 9cbd 3b7d 94bd 6004 e03b
00000060: d594 5f3c cbb2 673d c48e 713d 3c11 71bd
00000070: 5d5e 663d 4cf5 4abb c4c8 6abc 2cf4 1abd
00000080: 9a2b 593d 71d6 073c 564e 04bd a1b5 ea3c
00000090: 5708 923c 5a33 a63c 141d bfbc 3e3b 4b3d
000000a0: 7061 3f3c bbd0 6c3d 7b6d c5bc 26ea 55bd
000000b0: ceaa 9bbd 6a00 9ebd 4bff 15bd 5e05 a13b
000000c0: 38a7 613b 81f8 60bd 9284 823c 6a66 273c
000000d0: 4658 903d 76c2 9dbd dda4 263d 7c7e 643d
000000e0: d219 5dbd 2d91 8bba c0b7 0cbd 1f98 823d
000000f0: 280a f23c 72a2 65bd d96f 4d3d 3050 3dbb
00000100: 22bd 07bd 7433 98bd 49fa 343c 566c 883c
00000110: 6955 4d3d 66ae 2ebc 7746 503d f654 eebc
00000120: 1e37 12bd 1fc0 c43c 0283 c2bc 13d1 463d
00000130: d693 91bd b5c1 47bb f404 8ebd 2b45 9d3d
00000140: f802 2738 6312 22bd ac2c 3e3d 08e6 96bd
00000150: 6248 e23a 5435 c53b d0ed a9bc 9d57 bd3c
00000160: 4b7a a1bc 1eca 95bc b55f 09bd f69d ffbc
00000170: 5240 1dbb 4b41 96bd 0c11 04bd
0.07317282 0.0012997215 0.03982774 0.071137585 0.06493174 0.035674524 -0.037464876 0.070406556
-0.03018851 -0.070278555 -0.023720127 0.025609497 0.027843883 -0.04173977 0.044627324 0.06586035
0.014565208 0.046841323 0.042229746 0.04171795 0.03858991 -0.07623991 -0.07250448 0.006836459
0.013646324 0.056566995 0.058974043 -0.058854327 0.056242336 -0.0030968962 -0.014330093 -0.037830517
0.053020097 0.008290873 -0.03230127 0.02865106 0.017826242 0.020288158 -0.023329295 0.049617045
0.011680946 0.05781625 -0.024100056 -0.052225254 -0.07600938 -0.07714923 -0.03662042 0.00491397
0.0034431946 -0.05492449 0.015932355 0.0102172885 0.07048087 -0.07703106 0.04068457 0.055784687
-0.053979702 -0.0010648124 -0.034354925 0.06376671 0.029545859 -0.056063123 0.050155494 -0.0028886907
-0.033139355 -0.07431689 0.011046001 0.016653221 0.05013028 -0.010661697 0.05084845 -0.029093247
-0.035697095 0.024017392 -0.02374411 0.048539232 -0.071082756 -0.0030480449 -0.069345385 0.07679208
3.9818668e-05 -0.039568316 0.04642932 -0.07368094 0.0017264003 0.00601832 -0.02074328 0.023113066
-0.019711634 -0.018284854 -0.03353854 -0.031203251 -0.0023994637 -0.073366724 -0.03224282

trunk_net.net.0.weight f4 [190, 1]
00000000: 662e 1c3f ceb4 283e d94b 9b35 81a4 4dbf
00000010: a8e1 43bf 4ad6 68be 2b50 1c3f 416e 493f
00000020: efbe fc3d e423 6e3f 495a 4fbf f21e 203f
00000030: 542b f63e 7178 1cbf 4e4b 09bf a61f 80be
00000040: d0c4 f1be f67a 1c3e 928c 513f d17f b83d
00000050: 0771 e7bd 9324 81bf 97b3 adbd bd9d 493e
00000060: 3436 40bf 2fcb 543e 405a 563e f499 0ebf
00000070: 303a c7bc 139a 3cbe 9964 afbd bc54 033f
00000080: 0382 80be 73db debe 0ff0 d9bd 8116 1f3f
00000090: 22ed 8dbd 5d8b 16be 3694 913e dfc9 26bf
000000a0: 75bb 723f 5f30 30bf 9e64 e13e 560d 673f
000000b0: c08a 5ebf 0247 913e 43ce 0bbf bfef 32bd
000000c0: 9753 2e3f c973 3f3f b7b6 413f f5cb 043f
000000d0: f22e 6e3f fdb5 bc3e e741 47bf e1f5 85be
000000e0: 6fd7 2cbf d6e2 c1af 0e5b c03d e854 c13e
000000f0: b9ce 15bf e5b2 3d3f 2e7d be3b 8847 59bf
00000100: 5931 513e 7445 a1be 4b19 633c abe7 6e3f
00000110: 61fd b6be c76c 09bf 088e d6be 9233 503e
00000120: 6c63 0dbf bf29 5934 b7ae fbbe 870e fc3e
00000130: 03e0 7ebe d67a 50bf 166f 1ebd 03ea 023f
00000140: f34f 363f 30b3 27bf 7ae9 883e 946a b43c
00000150: 9152 d53c f632 fc3e 08d1 783f 7cb6 ca3e
00000160: b0f0 e7be 2aa5 bdbd a45e a5bd 6433 beb6
00000170: c8f0 4ebf 6d88 6c3f e6e5 e8bc 4adc 683d
00000180: 3e2a 873d c8a2 a5be 6d87 3abf 771d dcb9
00000190: 5cec 6abe 02bf f6be b5e9 38be 49a2 d5be
000001a0: 4fda 85be 6e76 293f 676b 3bbf f08c 463e
000001b0: 2c07 033e 8510 31bf 1c68 a83e 4ea1 d4bc
000001c0: 50e2 a2be fbeb 6bbf ffd2 1abf de2a fabe
000001d0: d2c5 033d d1bf 683f 100a a5bd 080b 4fbf
000001e0: fdcb 3d3f 05b1 1d3e 36cc b53c b082 52bf
000001f0: 78b8 5b3e 0238 87be eb65 64be 0564 433f
00000200: 0cfd 2c3f 62ad 7dbf 815b aebc e2c3 1b3e
00000210: 4cdf 693f 5de0 423f 049d 1cbf 0bd1 4cbf
00000220: 4f3f 33be 452d 223b d54e a93e d993 413e
00000230: c0ff 86bd f0c8 943e 10a0 8ebe 87cc 53be
00000240: 0ede f1bd 2d69 6cbe fb7e 3abf 7cd7 10bf
00000250: 3d83 813e 7867 263e 70e9 dfbd b798 d4be
00000260: 541e 3fbf a92c 033f fd9d ce3e ad9a 0fbf
00000270: 1b81 28bf d27a 32be fa3e 5abf 6e0d babe
00000280: e241 4a3f a8bd 7cb7 b76d 593e fe66 953e
00000290: c187 90be da77 bdbd 61ac 12bf eb4d dbbe
000002a0: b4b8 0bbf 2aa5 5fbf 1c56 3abe 7100 a9be
000002b0: e2b0 753f 2560 48bf 7cb7 ab3e bb23 debe
000002c0: 2ab3 30bd f4da 34bf 0a6d 69bd 0b95 2bbf
000002d0: 90e8 b83e 87ef 44bf 5ab5 d3bd 5529 9bbe
000002e0: 492a b9bc a828 c4be d5ea b4be 6d46 043f
000002f0: 0f09 33bf 555b 583f
0.610083 0.16475222 1.1570474e-06 -0.8032914 -0.765162 -0.22737995 0.61059827 0.7868386
0.12341105 0.93023515 -0.8099714 0.6254722 0.48079932 -0.6112128 -0.5363053 -0.25024146
-0.4722047 0.15281281 0.8185512 0.09008754 -0.11300855 -1.0089287 -0.0848152 0.19689079
-0.7508271 0.20780633 0.20932865 -0.55703664 -0.024319738 -0.1841815 -0.08564109 0.5130117
-0.2509919 -0.435268 -0.10641491 0.62143713 -0.06929995 -0.147016 0.28433388 -0.6515178
0.94817287 -0.6882381 0.44022077 0.90254724 -0.86930466 0.28374487 -0.54611605 -0.04368567
0.680963 0.7478605 0.75669426 0.51873714 0.9304038 0.36857596 -0.77834934 -0.26164153
-0.67516226 -3.5267672e-10 0.09392367 0.3776009 -0.5851856 0.74101096 0.0058132624 -0.84874773
0.20428981 -0.314983 0.013861011 0.9332225 -0.35740188 -0.53681606 -0.41905236 0.20332173
-0.5522983 2.0224887e-07 -0.49156734 0.49229833 -0.24890141 -0.8143743 -0.03868016 0.51138324
0.7121574 -0.65507793 0.26740628 0.022023477 0.026040347 0.4925763 0.97193956 0.3959235
-0.45300817 -0.09260018 -0.08074692 -5.668424e-06 -0.80836153 0.9239567 -0.028429937 0.05685071
0.06599854 -0.32350755 -0.72862893 -0.00041983623 -0.22941726 -0.48192602 -0.18057902 -0.41725376
-0.2614312 0.66196334 -0.7321076 0.19389701 0.12795705 -0.6916583 0.3289193 -0.025955822
-0.31813288 -0.9215695 -0.60478204 -0.4886083 0.032171078 0.9091769 -0.0805856 -0.8087621
0.74139386 0.15399559 0.022192102 -0.82230663 0.21457088 -0.26409918 -0.22304504 0.7632449
0.6757362 -0.99092686 -0.021283867 0.15211442 0.9135635 0.761236 -0.61177087 -0.80006474
-0.17504619 0.002474622 0.33067957 0.18904056 -0.06591749 0.29059553 -0.27856493 -0.2068349
-0.11809932 -0.23086996 -0.72850007 -0.56578803 0.2529544 0.16250408 -0.109331965 -0.41522762
-0.7465565 0.5124002 0.4035491 -0.5609539 -0.65822 -0.17429665 -0.85252345 -0.3633837
0.7900678 -1.5064528e-05 0.21233259 0.2918014 -0.28228572 -0.092513755 -0.5729428 -0.42832884
-0.5457871 -0.87361395 -0.1819691 -0.3300815 0.95973027 -0.78271705 0.33538425 -0.43386635
-0.043139614 -0.70646596 -0.056988753 -0.67024297 0.3611493 -0.7692799 -0.103373244 -0.3030497
-0.022603171 -0.38312268 -0.35335413 0.5166996 -0.699357 0.8451436

trunk_net.net.0.bias f4 [190]
00000000: 74fe adbe 8bd5 2a3f 87e7 e2be b0df 053f
00000010: 58a4 7e3e cf72 3e3e 7bc5 0b3e ce67 193d
00000020: 8c80 23bf 3958 1ebf 6829 f23d edf8 363f
00000030: 9684 a73d 7a29 b23e e50d 43bf 446e 5e3f
00000040: 9cc8 ad3d 03b2 333f f840 96be a31e 5fbe
00000050: 858e 373f b831 653f 394c 1d3e 7a18 30bf
00000060: 7743 9ebe 7a08 863e f22b 053f 6a70 393f
00000070: b2fe 153f 68f8 3fbe 9262 3abb bd1e 123f
00000080: 7a4c 33bf f1d5 9cbd 2dc5 7cbd 93da 713f
00000090: 5189 eabe 1522 493f ae7f 57bf 351e fcbe
000000a0: e695 45bf a4e9 583f cdce 14bf 7653 683f
000000b0: c10f 4b3e 1c09 703f 8f10 6abb dbf4 233f
000000c0: b67f 56bf f0f5 393d b377 04bf a3c2 0bbf
000000d0: 94d2 103d bdc0 8f3e d32a 03bf d3e3 37bf
000000e0: 5442 073f 716d 36bf 193b f9be 4623 65be
000000f0: 33c1 a33e 859f 85be 5327 3cbf 5acc 5a3f
00000100: d487 423f deef e13e ef11 febd e789 653f
00000110: df8e 0ebf 3dbe e5be 8473 193e 4b92 323f
00000120: 9e84 523e 0e82 15bd 5654 1bbf 2497 51bf
00000130: c93a 9a3e 1305 073f a316 513f 0bce 53be
00000140: ae9d 3bbe 2a8c fabe 701d 30be 6186 1f3f
00000150: 9862 88bd 7d88 b9be d56f 2a3f de5a 53bf
00000160: 02d3 b3be 4235 1b3f f1b2 cc3d da32 a3be
00000170: aa12 a33e 81f3 21be 79e9 8dbb 571c 19bf
00000180: 1f95 633f bfa1 34bf 0925 dbbe 0c81 4cbd
00000190: dd00 263f 81a4 633f bf15 57bf 93da 49bd
000001a0: 6742 04bf 7efb f63d c643 623f 4d31 bb3e
000001b0: 4d81 493d 12ff a03e d56f d3be 9474 c33e
000001c0: a866 00bf a732 ab3e 9617 753f b009 0a3f
000001d0: 4757 fd3d f5cc 26bf 84d6 bfbb 8340 cc3e
000001e0: 44d2 3b3d b8d1 22bf a26b 343f b2a3 3f3e
000001f0: b8d7 233f 8201 323f 011e 19ba cf45 12bf
00000200: 7bde 8d3e 4cc3 463f 8a96 e93e 5c40 25bf
00000210: ae4f 973e 1743 313f 4408 83be 3b7d 5e3f
00000220: c6e8 bd3d 144b 29bf 5f60 f63c b203 a13c
00000230: 8935 043f 7bf6 da3b 68dd 513e af6a ddbe
00000240: 6c93 293f 9c97 013f 1732 0d3f 8b9b 523f
00000250: 84b9 2cbf aeae 2c3f e0e9 a23c b2f7 d4bc
00000260: f802 583f 297b ecbd 643e ffbe 684c 1abf
00000270: b75c ce3e c9f0 b4be ba38 e03d 92fd 8c3a
00000280: 77fd 6a3f a0ee a4be 8770 c33e fbe9 073f
00000290: 3b74 1a3e aea1 673f 11ec bdbd 6360 d0be
000002a0: c54e 37bd b456 263f 42a9 7a3f cc3e 563f
000002b0: db86 403f 9207 203f cde7 6f3e 3890 51bc
000002c0: e5ec a2be d2c1 d53e bb7f a4be 808b a73e
000002d0: 4abe 88be 085b 3ebf 7737 f03e 7f7d af3e
000002e0: 37bd f13e 0a97 f73e 3488 d4bb 4be8 34bf
000002f0: 353a d8bd beec 673e
-0.33983195 0.6673209 -0.44317266 0.52294445 0.2486738 0.18598484 0.13649552 0.03745251
-0.6386802 -0.6185337 0.11824304 0.7147358 0.08179586 0.3479727 -0.76193076 0.86887
0.08485529 0.701935 -0.29346442 -0.2178903 0.7170184 0.8952899 0.15361108 -0.6878735
-0.30910847 0.26178342 0.5202018 0.72437155 0.5859176 -0.18747103 -0.00284401 0.5707815
-0.7003857 -0.076579936 -0.06171148 0.9447414 -0.4580789 0.7856763 -0.841792 -0.49241796
-0.7718185 0.8473151 -0.5812805 0.9075235 0.19830228 0.937639 -0.0035715436 0.64045495
-0.8378862 0.04540056 -0.51745147 -0.5459387 0.035357073 0.28076735 -0.5123722 -0.7183201
0.52835584 -0.71260744 -0.486779 -0.22376737 0.31983337 -0.26098266 -0.73497504 0.85468066
0.7598851 0.44128317 -0.12405764 0.8966355 -0.55686754 -0.44871703 0.14985472 0.69754475
0.20558402 -0.036500983 -0.6067556 -0.8187125 0.30122975 0.5274212 0.81675166 -0.20684068
-0.18321869 -0.48935062 -0.1719873 0.6231442 -0.0665943 -0.36236945 0.6657689 -0.8256053
-0.35121924 0.6062814 0.09995068 -0.31874734 0.31850177 -0.15815546 -0.0043308106 -0.5980887
0.88899416 -0.70559305 -0.42801693 -0.049927756 0.6484507 0.8892289 -0.84017557 -0.049280714
-0.5166382 0.12059687 0.88384664 0.3656105 0.049195576 0.31444603 -0.4129626 0.3817488
-0.5015664 0.33437082 0.95739114 0.5392103 0.123701625 -0.6515649 -0.0058544297 0.3989297
0.04585482 -0.63601255 0.70476735 0.18714789 0.64001036 0.6953355 -0.0005840958 -0.5713777
0.27708802 0.7764175 0.45622665 -0.6455133 0.29552978 0.69242996 -0.25592244 0.86909837
0.09272914 -0.66130185 0.03007525 0.019655082 0.5164419 0.006682215 0.20494616 -0.43245456
0.6624057 0.5062196 0.55154556 0.8226859 -0.67470574 0.6745404 0.01988691 -0.025997017
0.8437953 -0.115469284 -0.49852288 -0.60272837 0.4030511 -0.35339954 0.1094832 0.0010756722
0.91793007 -0.32213306 0.3817179 0.530914 0.15083401 0.9048108 -0.09273542 -0.40698537
-0.044752855 0.6497605 0.97914517 0.8368957 0.75205773 0.6251155 0.23428269 -0.012790732
-0.3182136 0.41749436 -0.321287 0.32723618 -0.2670768 -0.7435765 0.46917316 0.34275433
0.47214672 0.4835742 -0.0064859632 -0.7066695 -0.10557977 0.22648904

trunk_net.net.3.weight f4 [190, 190]
00000000: e9b6 903d 7d4f 12bc 5bc2 7131 38a6 193b
00000010: ebb8 de3c 4eab 49bc ecb8 2fbc 011a 3d3d
00000020: 9ece dab8 342a 8d3d fbf3 bdbd 9dba 093d
00000030: 839f 8b3c c133 793d 4e12 a532 0429 d13c
00000040: 3a99 a3bd d09b aabc d003 4ebd d329 a9ad
00000050: cb7f eabb cebc 6e3d 8ae6 4f3d 5ef7 02ba
00000060: c3d0 7eb5 1897 19bd c882 ea3b 689b d7bb
00000070: e6d6 863d ca14 1bb7 9959 9035 2c2d 61bd
00000080: f7f9 58b5 ca62 f935 75e0 3f38 7fbf 483c
00000090: 783f 0d34 b61a 373d 1380 4534 bef2 42b4
000000a0: 06bb 3cbc 4d7d 853d 6246 bb38 11ec 113d
000000b0: d6cf 3f3c 9b6e 12bd 4099 0bb1 bdac 2d3d
000000c0: 9b21 7336 bd56 dabc bac3 863c cf09 86b7
000000d0: 1591 573d ce1a 283d c392 2b37 c762 21b9
000000e0: 04e2 71bc fc60 6c35 5597 41b0 0c3a 783b
000000f0: 2245 12bd d8a0 98bd d2ec b135 af97 eebc
00000100: 415d 88bd 75e5 3fbd 2153 9a31 485a b73c
00000110: 4ed4 80b7 4023 bdb6 27b9 e13c ff78 dfbb
00000120: 4e28 403d 2810 3138 b953 17b0 d347 ec32
00000130: f2ee 3ebd 995e 583d e420 a4bc 6e46 f4bc
00000140: 7e76 97bd d751 87b5 4e57 a93d 218c 9c3c
00000150: 2a96 50b3 67d2 a93d 54af f03c ea12 0e3a
00000160: 171b b1ae 5240 273d 3649 673d 2784 d42f
00000170: ba95 2bbd a8e9 7bbd 666f 2cb7 9bb6 5eb7
00000180: 2c75 52bd f92f 8831 577e abb1 20a8 84b7
00000190: ebb7 80bd 04ec 7ebd 09a8 5134 d9c2 1dae
000001a0: 785f 5db8 6f3b a1bc 80d1 efbc cf19 903c
000001b0: a8b3 32bd bc2d 4bbd 12ad 5b32 b312 5b3d
000001c0: 8991 86b5 dce9 a23c c5c5 aebc b84e f0bc
000001d0: 71f3 cd3b f40d bebc 294c 7630 1518 a73d
000001e0: 699c 56bd 376f 4e39 dabe fc3c 4233 80bd
000001f0: 8b1a 62bd 6ce1 543c 09e5 72b1 40d0 2c3d
00000200: d4b6 2d3d 18fc a43b 104a 7a3a c50d 8537
00000210: 70bb 683d 4908 15ba 2f79 a830 e9ea 633c
00000220: e374 413d 998a 98b4 adf1 4b3d 99eb 373d
00000230: fa01 0fbd 4445 f7bc fa48 583d 4f0d 7132
00000240: faa6 883b c973 4e3d 0765 953d d339 34bd
00000250: 707c 58af a39a 19bd 4208 99bc cede ca32
00000260: 7b78 413d 7511 6ebd 3bf8 1937 bd87 2839
00000270: 2e0c 483d e51c 103a 8db4 dabd b0f3 b6b8
00000280: d9b7 5c3a 3b4c 85b7 c339 953d 8e4e 53bd
00000290: a4b7 69bd d711 bc3c 1bc9 7535 ad20 8437
000002a0: 56a3 0637 e10a 4fbd 70cf c83c 669a 14bd
000002b0: 1620 133d a6e6 de3c 5ff5 e9bc 3373 adb5
000002c0: 1b1e c7b9 9714 41bd 54bb 98b8 5695 543d
000002d0: 7738 463c 9747 f7b9 a471 43bd 6c9f dc3c
000002e0: c967 e83c e46d 8d3b 016d 8f36 77fb 5bb7
000002f0: 9d6a fdb9 bbbc 1ebd e240 f8bc 1e63 6f3d
00000300: e91a 4fb7 db3b 5aba 4809 ebb1 cd51 d3bc
00000310: 2640 15bd 487d dd3c 44a7 1035 1c44 a43d
00000320: 00b2 b938 6a74 343d d62f 903d a01d afbc
00000330: b1e0 2a2e 49aa 47bd f87b a8b2 ab9e 61bb
00000340: b89b a83b 9b42 8e33 33c5 20bc 7960 4dbd
00000350: b658 20bd 601f 7933 8b70 d439 5c59 6c3d
00000360: e17a ee3c b4c6 8abd fd49 0bbc a288 32b9
00000370: b182 79b3 f579 87bd c3e8 812e 85bf 32b1
00000380: 0f8a 24b6 6db2 313d ccd3 aeaf 863a 6fbc
00000390: 8275 31b8 92a9 8739 b76d ab3b 3626 98bd
000003a0: ceb5 8538 06c4 723c 5077 0aba 0f6b 8bbd
000003b0: a754 c5ae c3f2 533d 095a 8337 0d08 2e3d
000003c0: 273f ba3d f2d5 6eb7 50b2 283d 438e 883d
000003d0: 0673 fdb0 741a 28af 4b63 343a 12f3 0ab7
000003e0: 16d4 5735 f218 cabc 9b4b 27bd d6d0 2ebd
000003f0: 3df2 f631 4cbc 96bd 6285 583b b315 99bc
0.07066137 -0.008930084 3.5180594e-09 0.0023445021 0.027187785 -0.012308909 -0.010725241 0.046167377
-0.000104335355 0.06892815 -0.09275051 0.033625234 0.017043835 0.060840372 1.9216852e-08 0.025532253
-0.0798821 -0.02082625 -0.050296605 -1.923165e-11 -0.0071563474 0.058285527 0.05075697 -0.0004995967
-9.492616e-07 -0.03749761 0.0071567036 -0.006579805 0.065839574 -9.24356e-06 1.0754912e-06 -0.05497472
-8.083002e-07 1.8580697e-06 4.574699e-05 0.0122526875 1.3154738e-07 0.044703208 1.8393648e-07 -1.8155967e-07
-0.011519199 0.0651804 8.929965e-05 0.03562552 0.011707267 -0.035750013 -2.0314275e-09 0.042401064
3.6229383e-06 -0.026652688 0.016450752 -1.5978612e-05 0.052628595 0.041041188 1.0226565e-05 -0.00015390954
-0.014763359 8.805798e-07 -7.0428047e-10 0.0037876396 -0.03571046 -0.074525535 1.3256451e-06 -0.029125063
-0.06658412 -0.046849687 4.4914406e-09 0.022381917 -1.5357651e-05 -5.6367426e-06 0.027554108 -0.006819844
0.046913438 4.2215135e-05 -5.5052457e-10 2.7506678e-08 -0.046614595 0.05282459 -0.020035215 -0.02981874
-0.073956475 -1.0082102e-06 0.08268605 0.019109787 -4.8565347e-08 0.08292084 0.029380478 0.00054196885
-8.05384e-11 0.040832825 0.056466304 3.8656475e-10 -0.041890837 -0.06150213 -1.0277936e-05 -1.3274747e-05
-0.051381275 3.963575e-09 -4.991118e-09 -1.5813916e-05 -0.062850796 -0.0622368 1.9525773e-07 -3.5870727e-11
-5.277942e-05 -0.01968166 -0.029274702 0.017590431 -0.043628365 -0.049604163 1.2786829e-08 0.05348463
-1.0026134e-06 0.019886903 -0.021334538 -0.029334411 0.006285124 -0.023200013 8.960251e-10 0.0815889
-0.052395258 0.00019687122 0.030852724 -0.06259777 -0.055201095 0.012993198 -3.5345826e-09 0.04219079
0.042410687 0.0050349347 0.00095477793 1.5861247e-05 0.05681938 -0.00056851335 1.2258051e-09 0.013910987
0.047230612 -2.841305e-07 0.049791027 0.044902418 -0.034913994 -0.030184396 0.05280397 1.4031072e-08
0.004170296 0.05040339 0.0729466 -0.044000458 -1.9689295e-10 -0.03750099 -0.018680695 2.3617215e-08
0.04723404 -0.058122117 9.177306e-06 0.00016072295 0.04883974 0.00054974697 -0.106789686 -8.7238266e-05
0.00084197294 -1.5890333e-05 0.07286408 -0.051588587 -0.0570599 0.022957725 9.156226e-07 1.5750842e-05
8.025052e-06 -0.050547484 0.024512976 -0.03628006 0.03591927 0.027209591 -0.028559385 -1.2923032e-06
-0.00037978668 -0.047138777 -7.2828174e-05 0.05190023 0.012098423 -0.0004716485 -0.047715798 0.026931487
0.028369801 0.0043160785 4.274422e-06 -1.3111966e-05 -0.00048335353 -0.038754206 -0.030304376 0.058444135
-1.2344427e-05 -0.0008324959 -6.8404553e-09 -0.025795842 -0.03643813 0.027037278 5.3887584e-07 0.08020803
8.8546425e-05 0.044056334 0.07040374 -0.021376431 3.885309e-11 -0.04874638 -1.9614149e-08 -0.003442685
0.0051455162 6.624506e-08 -0.009812641 -0.05014083 -0.0391471 5.8003366e-08 0.00040519642 0.057702407
0.029111328 -0.06776181 -0.008501527 -0.00017026303 -5.8093693e-08 -0.06615058 5.9075876e-11 -2.6011275e-09
-2.4518265e-06 0.04338305 -3.1800906e-10 -0.014601355 -4.2309526e-05 0.00025875546 0.005231585 -0.07429163
6.375798e-05 0.014817243 -0.0005282061 -0.06807529 -8.97356e-11 0.051745187 1.5658343e-05 0.042488147
0.090940766 -1.42357185e-05 0.041185677 0.06667759 -1.8440864e-09 -1.5288909e-10 0.0006881251 -8.282035e-06
8.0402367e-07 -0.024670098 -0.040843587 -0.04267963 7.1870816e-09 -0.073601335 0.0033038487 -0.018687105

trunk_net.net.3.bias f4 [190]
00000000: 8154 8c3c d82f 53bd c601 28bd c1f0 453d
00000010: 5242 bf30 e182 4cbd 4d47 d1bc 4039 c33c
00000020: 7e3d 3e3d d7db b8bc eaa1 d9bb d432 273d
00000030: a517 e3bc 0653 e9ba c592 473d 4c18 10bd
00000040: 1347 593d 617d 74bb 1ce6 d1b5 0a85 60b5
00000050: 0cac 813d fad7 5bb9 846a e0bc 1d50 ee3c
00000060: a6c7 9e3b 32cd e43c 7438 77ba 38e5 ce3c
00000070: fbc3 eebc 9383 35bc 3c6b d3bb 52a5 9cbb
00000080: b3df 7a3d 8234 aabb ff55 513d d73d 45bc
00000090: 73bc 1f39 3a05 f13c 679e 70bc 1f2e 21b3
000000a0: 3d03 acbc cbbe 18bc d4e2 19ba e6fb 033b
000000b0: dae0 19bc 6ee6 81bd 5b45 9dbd 6a06 f5b8
000000c0: 7e65 253d 4a38 7f3c f661 59bd e36e e7bc
000000d0: c693 223d 405b 95bd 4a25 f93b da40 8a3d
000000e0: 9022 12bd c4e3 45b5 ec81 ccbc bcf3 60b8
000000f0: e090 80bd 0494 c63b 1946 093d c8c7 b93c
00000100: df98 583d 3031 a2bc 8631 963a baec 393d
00000110: fcc6 4f3d 5496 50bd dffe 80bd b6bf 653c
00000120: 67da e5bb d616 9ebb b728 1d3d 4204 653c
00000130: 5cab d0b9 ef35 413d fe57 bdb6 764d 28bd
00000140: 3b04 1a3d 2e6f 8ebd e33b e63c c740 2c3d
00000150: f84a d4bc b5bc 343c b3da 873d c5da c0bc
00000160: c3b5 1d3d 9f70 0c3c bdd8 90bb 1375 6e3d
00000170: 41aa 4a3d acae cebc 53b6 8ab6 a231 243d
00000180: 0d5f a8bb 2541 b6b2 48bf 013c a00e 46bd
00000190: 456f 80bd feb9 eabc 5f6d 17bd a1fb dfbc
000001a0: 64eb 6eb6 dfd7 5334 9527 98b8 2bc5 b5bc
000001b0: 7040 1bbd 0b52 563d 8999 48bd 28c3 183d
000001c0: ff18 03bd 7dde 53bd 8cd6 a3bb 5ead 5dbc
000001d0: 8df3 433d 2cde 8d3d 97fb 2db8 f7ee 83bb
000001e0: e72f db3c 59ef 1e3d c234 36bb e36f 5fb7
000001f0: dcc0 40b5 0e06 0e3d 1550 18bb f46a 6a37
00000200: 44b5 95ba cc2f c0bc c012 37bd 1b86 c63c
00000210: 7f9e 55bd 62ce 90b7 06a7 19bd ad8e f13c
00000220: f5ce 553d d767 663c 2b37 333d 1e6d 7cbc
00000230: ccfe 31b9 01c3 6cb7 e040 d23c 6743 18b6
00000240: 88a7 9f3c 9b70 8bb6 e1d2 0bba a284 82bc
00000250: f076 133d 9326 1fbd d1fc 0ab8 6f69 683c
00000260: cc6f a83b 6668 8dbd c8cf 5e3d e1af b7b7
00000270: a66e c73c 5b14 9ebc 4e5f 8abc e6a2 413d
00000280: 9326 b1bc 7151 8c3c 92b9 823d 1c01 693d
00000290: a6bd 813d 958f babc 72a2 1bbc 90a7 a43c
000002a0: 09fa ef3a c4ed 73bd 283a 27bd 80d4 c0bb
000002b0: cef1 79bd 70e6 2dbd edf8 3abb 2592 4fbc
000002c0: f67d 58bd 8950 783d 478c 543c db85 ba3a
000002d0: df10 103c ae90 84bb e2e9 d43c 5710 74bd
000002e0: 9920 a4bc 83a4 76ba f2a1 1d3d b6fc 45bd
000002f0: 6c11 5b3d 6f12 c53c
0.017130138 -0.0515593 -0.041017316 0.048325304 1.3915928e-09 -0.049929503 -0.025546694 0.02383101
0.046445362 -0.022565765 -0.006641616 0.040819958 -0.027721236 -0.0017801232 0.048723955 -0.03517942
0.053046297 -0.0037306177 -1.5638684e-06 -8.36401e-07 0.063316435 -0.00020965925 -0.02739454 0.029090935
0.0048455773 0.027929876 -0.00094307144 0.025255784 -0.029146185 -0.011078733 -0.0064519923 -0.00478045
0.061248492 -0.0051942477 0.051107403 -0.01203867 0.00015233624 0.029421438 -0.014686204 -3.752768e-08
-0.020997638 -0.009322832 -0.0005870287 0.0020139157 -0.009391988 -0.06342779 -0.07679244 -0.00011683705
0.040379994 0.015577385 -0.05307194 -0.028251117 0.03969171 -0.07292795 0.007603322 0.06750651
-0.035677493 -7.371966e-07 -0.024964295 -5.3632757e-05 -0.06277633 0.0060601253 0.033514116 0.022678271
0.052880164 -0.019798845 0.0011458851 0.045391776 0.050726876 -0.050924614 -0.06298613 0.014022758
-0.007014561 -0.0048244996 0.038368907 0.013978066 -0.00039800524 0.047170576 -5.6428826e-06 -0.041089498
0.03760169 -0.069547996 0.028104728 0.042053964 -0.025914654 0.011031319 0.066335104 -0.023541817
0.03850342 0.008571773 -0.0044203685 0.05821712 0.049478773 -0.025229774 -4.133946e-06 0.040086396
-0.005138284 -2.1217213e-08 0.00791914 -0.04835379 -0.06271223 -0.028653141 -0.03696954 -0.027341666
-3.560178e-06 1.972944e-07 -7.2552975e-05 -0.022188744 -0.03790325 0.052324336 -0.048974548 0.03729549
-0.03200626 -0.051725853 -0.004999941 -0.0135301035 0.04783969 0.069271415 -4.1480725e-05 -0.0040262896
0.02675624 0.03880248 -0.0027802442 -1.3317886e-05 -7.180622e-07 0.034673743 -0.0023241092 1.3972389e-05
-0.0011421819 -0.023460291 -0.044695616 0.024233868 -0.052153107 -1.7262242e-05 -0.0375128 0.029486978
0.052199323 0.014062843 0.043753784 -0.015406875 -0.00016974955 -1.4112099e-05 0.0256657 -2.2688998e-06
0.019489065 -4.155632e-06 -0.00053338526 -0.015932385 0.0360021 -0.038855147 -3.3137218e-05 0.014185294
0.0051402804 -0.06904678 0.054397374 -2.18972e-05 0.024344753 -0.019296816 -0.016891148 0.047274493
-0.021624839 0.017128678 0.06383051 0.056885824 0.06335001 -0.022773543 -0.009499179 0.020099431
0.0018308769 -0.059552923 -0.040826946 -0.005884707 -0.06102162 -0.04245609 -0.002852972 -0.012669121
-0.0528545 0.06062368 0.012972898 0.0014230566 0.008793085 -0.0040455675 0.02599043 -0.059585895
-0.020035075 -0.00094086694 0.03848452 -0.048336707 0.05348341 0.024056641
