Notebooks/final_model_train_plus_val_minibatch.pt (torch, 898780 bytes, 12 tensors)

branch_net.net.0.weight f4 [160, 1000]
0	0xbce85757	-0.02836196
1	0xbcbe7cf5	-0.023252944
2	0xbc547e5d	-0.0129695805
3	0xbc9bcb70	-0.019017905
4	0x3cdf52ee	0.027261224
5	0xbd0020ae	-0.031281166
6	0xbbd17988	-0.0063926615
7	0x3c9f5cf1	0.019453498
8	0xbc13c23e	-0.009018479
9	0xbbd00381	-0.006348074
10	0xbc4ffb39	-0.0126941735
11	0xbc54629e	-0.012962965
12	0xbca838c9	-0.02053489
13	0xbca6a0a1	-0.020340266
14	0x3cac9fa3	0.021072214
15	0x3c739178	0.014866225
16	0x3ce28416	0.027650874
17	0xbc4ebc3d	-0.012618122
18	0x3ca95938	0.020672426
19	0x3c0a93f4	0.008458126
20	0xbc2b0d8c	-0.010440242
21	0x3c466b32	0.012110518
22	0xbcd612e2	-0.02613205
23	0x3cca719a	0.024712373
24	0x3b840f78	0.0040301643
25	0xbbb19182	-0.005418957
26	0x3b02f5b1	0.001998287
27	0xbcf72b12	-0.030171905
28	0xbc9b1e18	-0.018935248
29	0xbce78026	-0.028259348
30	0xbc37a29c	-0.011208203
31	0x3ce230fb	0.027611246
32	0x3c0cd865	0.008596514
33	0x3cd5bd1b	0.02609115
34	0x3b92c496	0.0044790013
35	0xbc2e20ed	-0.010627967
36	0xbc1a80f1	-0.009430156
37	0xbb7ee737	-0.003889514
38	0xbc70e576	-0.014703145
39	0x3ce5e649	0.02806391
40	0x3b171bbf	0.002305731
41	0x3c975bb1	0.018476339
42	0x3ce051f6	0.027382832
43	0xbcae48d2	-0.021274958
44	0x3c77a048	0.015113898
45	0xbbe6f7cd	-0.007048583
46	0x3cba4d21	0.022741856
47	0x3cea7d08	0.028624073
48	0x3cdd4428	0.027010038
49	0x3cd10a4a	0.025517602
50	0xbb2fee52	-0.002684493
51	0xbc5e2858	-0.013559423
52	0x3cc4af75	0.024009446
53	0xbc518567	-0.012788153
54	0x3ca429e5	0.020039508
55	0xbb473fc0	-0.0030402988
56	0x3ca2fbca	0.019895453
57	0xbcf3ad63	-0.029745763
58	0xbc8c0746	-0.017093312
59	0xbca8f1c9	-0.020623105
60	0x3b89f821	0.0042104875
61	0xbcbf6b96	-0.02336673
62	0xbcad50b5	-0.021156648
63	0xbc5d9bca	-0.013525913
64	0x3aacf7e2	0.0013196433
65	0x3c2a4814	0.010393161
66	0x3bd15cc2	0.0063892314
67	0x3ca3ae7e	0.019980665
68	0x3cc6123f	0.024178622
69	0x3cbd526e	0.023110595
70	0x3cb5b9b5	0.022183279
71	0xbae96536	-0.0017806652
72	0xbbb8641e	-0.0056271693
73	0x3b87bf26	0.0041426597
74	0xbc429aa3	-0.011877689
75	0x3cc404fb	0.023928156
76	0x3cc457fa	0.023967732
77	0xbc83abdf	-0.016073165
78	0xbc7b8350	-0.015351132
79	0x3abf06e2	0.0014574195
80	0xbd0f3152	-0.034959145
81	0xbccfd1ca	-0.02536859
82	0x3ccbd13d	0.024880046
83	0xba9ca47c	-0.0011950876
84	0xbca30aa0	-0.019902527
85	0xbc967db2	-0.018370483
86	0xbc6e0a1f	-0.01452878
87	0x3c893762	0.016750041
88	0xbcda3708	-0.02663757
89	0xbcc10cd9	-0.023565697
90	0x3ba7a388	0.00511593
91	0x3a964aa2	0.0011466334
92	0x3cbb912a	0.022896368
93	0x3c9ac42a	0.018892366
94	0x3b85f9e7	0.0040886286
95	0x3cd709be	0.026249763
96	0x3cced5af	0.025248377
97	0xbca7cfc1	-0.020484807
98	0xbbac6473	-0.005260998
99	0x3c5e8cd6	0.013583383
100	0xbc9201c0	-0.0178231
101	0x3c9baa90	0.019002229
102	0x3c82ab1c	0.015950732
103	0xbbd8cb43	-0.0066160276
104	0x3c4f2166	0.01264224
105	0xbd062e43	-0.032758962
106	0xbb11f8ec	-0.0022273613
107	0xbd0c8f47	-0.034316327
108	0x3c5bc454	0.0134135075
109	0xbb0e5f28	-0.0021724198
110	0x3cc46339	0.023973094
111	0xbcc99d89	-0.024611251
112	0xbcc20bb7	-0.023687227
113	0xbc8cf1c1	-0.017205121
114	0x3b79c087	0.003810914
115	0x3cc17d49	0.02361931
116	0xbb8887d4	-0.0041665826
117	0xbc6dceff	-0.014514684
118	0x3cd598d9	0.02607386
119	0x3c423a48	0.011854716
120	0xbcc70c9a	-0.024298001
121	0xbcc640f9	-0.024200903
122	0xbc1d6b01	-0.009608031
123	0x3c760fc2	0.015018405
124	0xbd066387	-0.03280976
125	0xbd015f33	-0.03158493
126	0xbc3c86c1	-0.011506737
127	0xbd0733e3	-0.033008467
128	0xbc9dc03a	-0.0192567
129	0x3ce394c9	0.027780907
130	0xbbff966b	-0.0077999136
131	0x3cd185b9	0.02557646
132	0xbcc198de	-0.023632463
133	0x3c1bca4d	0.0095086815
134	0x3c63ecd7	0.0139114475
135	0xbc128042	-0.008941712
136	0xbba20026	-0.0049438654
137	0x3cc33f10	0.023833781
138	0x3ce0bed0	0.027434736
139	0xbc8908bb	-0.016727796
140	0xbcd287c3	-0.025699502
141	0x3b53a48a	0.0032294118
142	0x3bc810e5	0.0061055296
143	0xbca147f2	-0.019687627
144	0x3cbc2487	0.022966636
145	0xbbb92a16	-0.005650769
146	0x3c914e7f	0.017737625
147	0x3c190864	0.009340379
148	0xbc0a8a52	-0.00845583
149	0xbc0334ca	-0.008008191
150	0xbb0e5a4e	-0.0021721306
151	0x3cd04ebf	0.025428174
152	0xbc4d45bc	-0.012528833
153	0x3c81f4b3	0.015863752
154	0x3c25345c	0.010083284
155	0x3cca83c5	0.024721036
156	0xbc9092a5	-0.01764805
157	0x3b25afce	0.002528179
158	0xbbbf6994	-0.0058414433
159	0xbcb34951	-0.021885546
160	0xbcf76b23	-0.030202454
161	0xbc8cc5db	-0.017184189
162	0x3c96b1e5	0.018395374
163	0xbc6a3100	-0.014293909
164	0xbd05b35a	-0.032641746
165	0x3ccd9dd6	0.025099676
166	0xbc6c501d	-0.014423397
167	0xbce802a5	-0.028321574
168	0xbc4519f4	-0.0120301135
169	0xbc9c035e	-0.019044574
170	0x3be3643c	0.006939439
171	0xbc02c6eb	-0.007981996
172	0xbceb8eff	-0.02875471
173	0x3c8235d4	0.015894808
174	0x3cb1c999	0.021702575
175	0x3bec44a3	0.0072103306
176	0xbcfdcddf	-0.030981956
177	0xbcd92b51	-0.026509913
178	0xbd0d6f49	-0.034529958
179	0xbd0fc717	-0.035101976
180	0x3c9529a3	0.01820833
181	0x3c7d9110	0.01547648
182	0xbc2e1305	-0.010624652
183	0xbcaeb553	-0.021326697
184	0x3c2144fd	0.009843108
185	0x3c65aec6	0.01401872
186	0xbce43d18	-0.027861163
187	0x3c9afb10	0.018918544
188	0xbc42a509	-0.011880168
189	0x3c3c82da	0.011505807
190	0x3cb7ecb9	0.022451745
191	0xbcb83802	-0.022487644
192	0x3b617ba3	0.0034405969
193	0xbc17d826	-0.009267842
194	0xbc923f13	-0.017852342
195	0x3cbb4679	0.022860752
196	0x3c21af43	0.009868446
197	0xbd0ce581	-0.03439856
198	0x3c8651ef	0.01639649
199	0xbd04577b	-0.03230999
200	0x3bc60915	0.006043563
201	0xb9d92856	-0.00041419518
202	0xbd179c64	-0.03701438
203	0xbcdad50c	-0.026712917
204	0xbcc79429	-0.02436264
205	0x3a1335bb	0.00056156114
206	0xbbab0aa6	-0.0052197753
207	0xbc5d4ce8	-0.013507105
208	0x3cc3217d	0.02381968
209	0x3bd7a3b6	0.006580795
210	0xbce38068	-0.02777119
211	0xbca30dfd	-0.019904131
212	0x3b2ef1a7	0.002669433
213	0x3bfb1884	0.0076628346
214	0x3c850c15	0.016241113
215	0xbcdaa475	-0.026689747
216	0xbcb394fa	-0.021921623
217	0x3be19f1d	0.006885423
218	0x3cd9aca8	0.026571587
219	0xbcf6a22d	-0.030106628
220	0xbbb03616	-0.0053775413
221	0xbc3faa9e	-0.011698393
222	0x3b8c06f9	0.004273292
223	0x3c54e529	0.012994089
224	0xbce80583	-0.02832294
225	0xbcb49192	-0.02204207
226	0xbd0b6026	-0.03402724
227	0xbc8357c2	-0.016033057
228	0xb6a957c4	-5.0468097e-06
229	0x39a0385a	0.00030559563
230	0xbccd212c	-0.025040232
231	0x3c5e70d2	0.013576703
232	0x3cdeda6c	0.027203761
233	0xbbb30035	-0.005462671
234	0xbc9d5de7	-0.019209815
235	0x3bf9eeed	0.007627359
236	0x3bc40dbe	0.0059830835
237	0xbcfd1efd	-0.030898565
238	0xbd01560e	-0.03157621
239	0x3bf92410	0.007603176
240	0x3b37350f	0.002795521
241	0xbc35e066	-0.011100864
242	0x3ca80cc0	0.020513892
243	0xbb8543cf	-0.0040669213
244	0xbc8ceb2b	-0.01720198
245	0x3cd47e80	0.025939226
246	0x3b89d8df	0.0042067613
247	0xbcedd15d	-0.029030496
248	0x3bcc6cb3	0.006238544
249	0xbcd3cf67	-0.025855733
250	0x3ca4cfd1	0.020118626
251	0xbc430c85	-0.01190484
252	0xbd021166	-0.031754874
253	0x3c4753c1	0.012165965
254	0xbcd8109d	-0.02637511
255	0xbcf8e441	-0.030382277

branch_net.net.0.bias f4 [160]
0	0x3bc8ee34	0.0061319117
1	0x3c90e92a	0.017689306
2	0x3c097cc1	0.00839156
3	0xbca1ebd6	-0.019765776
4	0xbb621871	-0.0034499431
5	0x3d0098a6	0.031395577
6	0x3c04286c	0.008066278
7	0x3c00a0e8	0.007850863
8	0xbcdbe855	-0.026844183
9	0x3ce3d897	0.027813239
10	0x3c824833	0.015903568
11	0x3c400372	0.011719571
12	0xbca6967b	-0.020335427
13	0xbc43523a	-0.01192146
14	0x3bc3ced3	0.005975583
15	0x3c9860c8	0.018600836
16	0xbc4645ac	-0.012101572
17	0xbb22f337	-0.0024864206
18	0xbcb37b71	-0.021909447
19	0x3bfd7fb5	0.007736171
20	0xbcd8f5c9	-0.026484387
21	0x3cc33f74	0.023833968
22	0xbb59d0f3	-0.0033236116
23	0x3c10d918	0.008840822
24	0xbc89abd9	-0.016805576
25	0xbcba55ec	-0.022746049
26	0x3ca3a3d7	0.019975586
27	0xbcdc650f	-0.026903657
28	0x3caff42e	0.021478739
29	0x3c5a9d64	0.013343189
30	0x3ce35192	0.027748857
31	0xbce80e4f	-0.028327135
32	0x3ab74d6d	0.0013984867
33	0x3d0bdf2d	0.034148384
34	0x3c62be65	0.013839339
35	0xbc4eca92	-0.012621539
36	0xbcdf1373	-0.027230954
37	0xbcc667f7	-0.024219496
38	0xbbc51ccb	-0.0060153953
39	0xbc614db8	-0.01375144
40	0xbc111406	-0.008854872
41	0xbd02a1e5	-0.031892676
42	0xbbd1da7c	-0.006404219
43	0xbd0f7806	-0.035026573
44	0x3ce80603	0.02832318
45	0x3bdeb1b2	0.0067960853
46	0xbc7c8357	-0.015412173
47	0xbb7281b7	-0.0037003586
48	0x3ca4fce3	0.020140117
49	0x3ba77217	0.005110036
50	0xbd0cd82c	-0.034385845
51	0xbbe87655	-0.0070941844
52	0xbba4ac08	-0.0050253905
53	0xbc71f7da	-0.014768565
54	0xbb4b123d	-0.0030986213
55	0xbc365309	-0.011128196
56	0x3b624f20	0.0034532025
57	0x3d050ace	0.032481007
58	0xbcabde60	-0.02098006
59	0xbc94216d	-0.018082345
60	0x3b689ba8	0.003549317
61	0xbc33f46a	-0.010983566
62	0x3c9483ee	0.018129315
63	0xbc92169b	-0.017833045
64	0xbbead44d	-0.0071664215
65	0xbc956d93	-0.018240726
66	0xbc0cef05	-0.008601909
67	0xbc84def2	-0.01621959
68	0xbcea6b8c	-0.028615735
69	0x3c7d5efa	0.015464539
70	0x3c510cea	0.012759427
71	0xbcc42c35	-0.02394686
72	0x3cf0c70e	0.029391792
73	0x3d06752d	0.03282659
74	0x3cb84862	0.022495452
75	0x3be1fcc4	0.006896587
76	0xbc7ce4f2	-0.015435444
77	0xbbb28839	-0.005448368
78	0xbc5d96aa	-0.013524691
79	0xbc8cff21	-0.017211499
80	0x3c3bd0ba	0.0114633385
81	0x3bf47778	0.007460531
82	0x3c2c7435	0.010525753
83	0x3bb3d13a	0.0054875882
84	0xbba25049	-0.0049534184
85	0xbc84659c	-0.016161732
86	0x3c89d1f7	0.016823752
87	0xbcd982fd	-0.026551718
88	0x3c7e511a	0.015522266
89	0xbc74f7ac	-0.014951628
90	0xbc3acb30	-0.011400983
91	0xba8d7979	-0.0010793648
92	0xbcbaa6bb	-0.022784581
93	0x3c6e6ac8	0.014551826
94	0xbbcfef51	-0.0063456674
95	0xbbd2b118	-0.0064298026
96	0xbce47c4a	-0.027891297
97	0x3d06e5cc	0.032933995
98	0x3cd86705	0.026416311
99	0x3d0dfd0c	0.034665152
100	0x3be87fe6	0.007095325
101	0xbc83bfa7	-0.016082598
102	0xbb762649	-0.003755944
103	0xbc9eebc8	-0.019399539
104	0xbbaa6369	-0.005199839
105	0xbc662455	-0.014046748
106	0xbca69d34	-0.020338632
107	0xbc9baf5e	-0.01900452
108	0x3cdb059b	0.026736071
109	0x3cbe4640	0.023226857
110	0xbca4a2c3	-0.020097142
111	0xbafb51ee	-0.0019174197
112	0x3ce8d32a	0.028421003
113	0x3c839d90	0.016066343
114	0x3c198f2a	0.009372512
115	0x3c4d4582	0.012528779
116	0x3cde6603	0.027148252
117	0xbc4c146d	-0.012456042
118	0xbc1bdcba	-0.0095130745
119	0x3b67fd0d	0.0035398633
120	0x38cb96a8	9.707856e-05
121	0x3c1fa3aa	0.00974361
122	0x3c1a206a	0.009407142
123	0xbc55e2bf	-0.013054549
124	0x3cab0c9a	0.020880032
125	0x3cdcbb42	0.02694476
126	0xbc5b650f	-0.013390793
127	0x3bc8008e	0.0061035817
128	0xbc722cc3	-0.01478118
129	0xbcbedd37	-0.023298843
130	0xbc8fdeea	-0.017562348
131	0xbca02b9c	-0.019552045
132	0x3c3f94e8	0.011693217
133	0xbc12dd3a	-0.008963877
134	0x3d0b7363	0.03404559
135	0xbced1fd6	-0.028945845
136	0x3b38cdcb	0.0028198834
137	0xbaf6ffaf	-0.001884451
138	0xb9f798d0	-0.00047225365
139	0x3cb9abcb	0.022664925
140	0xbcb29a36	-0.02180205
141	0x3cd6425e	0.026154693
142	0x3ca91324	0.02063901
143	0xbc0bcf58	-0.008533321
144	0x3c93c9e9	0.018040614
145	0x3c0068a0	0.007837445
146	0x3bce61ed	0.0062982948
147	0x3cc25bd2	0.023725424
148	0x3b718a6f	0.0036856194
149	0x3ce0031e	0.027345236
150	0xbc5288af	-0.012849971
151	0x3c5be041	0.0134201655
152	0x3bcf954f	0.0063349376
153	0x3cbf2be1	0.023336353
154	0x3cae9e8f	0.021315841
155	0xbcb4ab2d	-0.02205428
156	0xbccb0375	-0.024781922
157	0x3b6422dc	0.0034810817
158	0x3cb7d75e	0.022441562
159	0x3c8cd566	0.0171916

branch_net.net.3.weight f4 [35, 160]
0	0x3b6f9196	0.0036555282
1	0x3d80a90b	0.062822424
2	0xbc850663	-0.016238397
3	0x38e5b28b	0.00010952827
4	0xbd4d60ac	-0.05014102
5	0x3d3d3214	0.046190336
6	0x3bfd369c	0.007727457
7	0xbcdee78d	-0.027210021
8	0xbd499b42	-0.04922033
9	0xbd3dd38d	-0.04634433
10	0xbd136022	-0.03598035
11	0x3d1c3d84	0.038144603
12	0xbd7bf517	-0.061513033
13	0x3c02b056	0.007976612
14	0xbd7e878a	-0.06214098
15	0x3d927998	0.071520984
16	0x3ba950ff	0.005167126
17	0xbd3c8b44	-0.04603125
18	0xbbf6a74c	-0.0075272676
19	0x3d60279d	0.05472528
20	0xbd789991	-0.060693327
21	0x3d5975ff	0.053091045
22	0x3d45953e	0.04823803
23	0x3d037761	0.03209627
24	0x3bc91b5e	0.0061372956
25	0x3d432503	0.04764272
26	0xbd004b10	-0.031321585
27	0x3cfaafbd	0.030601377
28	0x3cb428db	0.021992138
29	0x3cf42da7	0.029806925
30	0xbd527a5d	-0.051386226
31	0xbd59b5bb	-0.053151827
32	0x3c1c6ee7	0.009547926
33	0xbd9d275a	-0.07673521
34	0xbd9b1b25	-0.07573537
35	0x3bf49757	0.00746433
36	0x3bb3f880	0.00549227
37	0xbd20e305	-0.039279003
38	0xbd895705	-0.06706051
39	0xbd9140bd	-0.07092426
40	0xbcc5b0f8	-0.024132237
41	0x3d8708eb	0.06593498
42	0x3d10cb33	0.035350036
43	0xbd1f71fc	-0.038927063
44	0xbc419025	-0.011814152
45	0xbd92f565	-0.071757115
46	0xbd2f1880	-0.042747974
47	0x3bcc9b02	0.0062440643
48	0x3d0e326e	0.034716062
49	0xbd695951	-0.056969944
50	0xbccf7bfc	-0.025327675
51	0xbd8efddd	-0.06982014
52	0x3d8e8b9f	0.06960224
53	0x3aca4db9	0.001543454
54	0xbd636f7c	-0.05552624
55	0xbc4da3b7	-0.01255124
56	0x3d83c512	0.064340726
57	0x3d65f06c	0.056137487
58	0xbd870b06	-0.065938994
59	0x3d189ee4	0.037260905
60	0x3d7605c6	0.0600641
61	0x3c2ffe49	0.010741779
62	0xbd4ebdb1	-0.050473873
63	0x3d353cc4	0.044247404
64	0xbd56808f	-0.052368697
65	0xbd574334	-0.052554324
66	0xbd49f55c	-0.04930626
67	0x3d0c4b95	0.03425177
68	0xbd3b8479	-0.045780633
69	0xbad894f8	-0.0016523888
70	0xbd8d47ed	-0.068984844
71	0xbc064a15	-0.0081963735
72	0x3d51b7ab	0.05120055
73	0xbc2d45dc	-0.010575738
74	0xbc59a7bc	-0.01328462
75	0xbbbb43b9	-0.0057148603
76	0xbcb624eb	-0.0222344
77	0xbcfdb4cd	-0.030970002
78	0x3da5e237	0.08099788
79	0x3c9da082	0.019241575
80	0x3c437154	0.011928875
81	0x3d58e8ed	0.05295651
82	0xbd8b12a3	-0.06790664
83	0xbd411e9d	-0.047148336
84	0xbd9a2757	-0.07527035
85	0xbb23c523	-0.0024989329
86	0xbc8fed95	-0.017569343
87	0xbd15f991	-0.03661496
88	0x3d007992	0.03136594
89	0x3d82f5a3	0.06394508
90	0x3d7d0652	0.061773606
91	0xbd57b931	-0.052666847
92	0x3d7f2cf0	0.062298715
93	0x3d88f6c0	0.06687689
94	0xbb785b6e	-0.0037896293
95	0xbd959c41	-0.07305194
96	0x3c13fe74	0.009032834
97	0x3d94fc14	0.072746426
98	0xbc1a6ec9	-0.009425827
99	0x3da918b8	0.08256668
100	0xbd516140	-0.051118135
101	0x3b4a36d1	0.0030855427
102	0x3d49c36f	0.049258646
103	0x3d596b5d	0.053080905
104	0x3b2060e7	0.002447182
105	0xbd7d7488	-0.06187871
106	0xbca62efa	-0.020286072
107	0x3bbbae83	0.0057275905
108	0xbd951f1d	-0.07281325
109	0xbd85f048	-0.06539971
110	0xbd418e01	-0.047254566
111	0x3d4d3b9e	0.050105684
112	0x3cd1d0c6	0.025612246
113	0x3bb25ba6	0.0054430543
114	0xbcc1e59b	-0.023669055
115	0x3d4aea91	0.049540106
116	0xbd92a97f	-0.07161235
117	0xbd87e37e	-0.066351876
118	0x3c004710	0.007829443
119	0xbd625913	-0.05526073
120	0x3d919ec3	0.071103595
121	0x3d8c4f66	0.068510816
122	0xbb7729a2	-0.0037714024
123	0x3c5bf35c	0.013424721
124	0x3d33b0a4	0.04386963
125	0xbd6438c8	-0.055718213
126	0xbd73fb42	-0.05956579
127	0x3d8a3bde	0.067497
128	0xbd46070f	-0.048346575
129	0x3d4dbc9a	0.050228693
130	0x3d62c7b6	0.05536624
131	0xbd3e8e9f	-0.046522733
132	0x3c096c98	0.008387707
133	0x3cebdff3	0.02879331
134	0x3d868fa5	0.06570367
135	0xbd42a156	-0.047517143
136	0x3d6c82fc	0.057742104
137	0x3cfe1329	0.031014996
138	0x3ce7ae31	0.028281303
139	0xbcbe851e	-0.023256835
140	0xbca4aa61	-0.020100774
141	0x3b798e13	0.0038079068
142	0x3d76f3e8	0.0602912
143	0x3d7330d9	0.059372757
144	0x3d19eb6c	0.03757803
145	0xbd08dca6	-0.03341355
146	0xbc88cc41	-0.016698958
147	0x3ba43dcf	0.005012251
148	0xbd1d0241	-0.038332228
149	0xbd6678c0	-0.0562675
150	0x3c0a7222	0.008450063
151	0x3d75fb1e	0.060053937
152	0x3d909eca	0.070615366
153	0xbd3b1900	-0.04567814
154	0x3c5be205	0.0134205865
155	0x3d8ac324	0.06775501
156	0xba60e78c	-0.0008579425
157	0xbd500d63	-0.050794017
158	0xbd873ccb	-0.06603392
159	0x3beef6c3	0.0072926
160	0xbd06ecf3	-0.032940816
161	0xbd326b66	-0.043559454
162	0xbc56daff	-0.013113736
163	0x3d7e776b	0.062125605
164	0xbc61f4ef	-0.013791307
165	0x3b89a0bc	0.0042000692
166	0xbd6d790d	-0.05797677
167	0x3d6ea996	0.0582672
168	0xbd1922ba	-0.037386633
169	0x3d5b1c79	0.05349395
170	0xbd71ed55	-0.059064228
171	0x3d5fbe4a	0.054624833
172	0xbd844df0	-0.06460178
173	0x3cf191f5	0.029488543
174	0x3b6bba07	0.0035969035
175	0x3d7da9e5	0.061929602
176	0xbc5ac67c	-0.013352986
177	0xbc995134	-0.018715478
178	0xbd650013	-0.055908274
179	0xbd968b7e	-0.07350825
180	0xbd7c3ae6	-0.061579607
181	0x3c1d8cb3	0.009616065
182	0x3d0bb29f	0.034105893
183	0x3d1d0192	0.038331576
184	0x3d5917ec	0.05300133
185	0xbc15c74a	-0.0091417525
186	0x3d2d1675	0.042257745
187	0x3cffb972	0.031216357
188	0xbd9780ca	-0.073976114
189	0x3dab0a5a	0.08351584
190	0xbbf0edc1	-0.007352561
191	0x3d8bbfa0	0.06823659
192	0x3d434cd2	0.047680683
193	0xbcd4bd0f	-0.025969056
194	0xbd709ef9	-0.05874536
195	0xbb1cc33f	-0.0023920087
196	0xbd1ddd17	-0.038540926
197	0xbcacda70	-0.021100253
198	0x3d459515	0.04823788
199	0x3d75897f	0.05994558
200	0x3c18c12e	0.009323401
201	0x3d960186	0.07324509
202	0xbc56f7d7	-0.013120613
203	0x3c6ad411	0.014332787
204	0xbd505688	-0.050863773
205	0xba77b8bb	-0.0009449829
206	0x3cbc6cef	0.023001162
207	0xbbed3558	-0.007239025
208	0xbd95e04a	-0.0731817
209	0x3cfffa51	0.03124729
210	0x3b672417	0.0035269314
211	0xbd967563	-0.073466085
212	0xbd2800fa	-0.041016556
213	0xbd4cc01d	-0.0499879
214	0x3cd8c959	0.026463198
215	0x3d996d0d	0.07491503
216	0x3d82683c	0.063675374
217	0xbd5b03e0	-0.053470492
218	0x3d905a81	0.07048512
219	0xbd8a7d63	-0.06762197
220	0xbd7f6e6e	-0.062361173
221	0xbd8ef912	-0.069811
222	0x3c1fb04c	0.009746622
223	0x3b86a1da	0.0041086497
224	0xbd0310fa	-0.031998612
225	0x3c82ff44	0.01599086
226	0x3ccef16a	0.0252616
227	0x3d690bed	0.05689614
228	0x3d313e7f	0.04327249
229	0x3d8b95fc	0.068157166
230	0xbcee29f1	-0.029072734
231	0x3d4ee3ad	0.050510097
232	0xbd86447a	-0.065560296
233	0x3cf55eff	0.029952524
234	0x3c23f621	0.010007412
235	0xbd9ec391	-0.07752145
236	0x3cc8940d	0.024484659
237	0x3d321b50	0.04348308
238	0xbd4dd2e4	-0.05024995
239	0x3d88992b	0.066698395
240	0xbd1bfcea	-0.038082995
241	0x3d457ea5	0.04821648
242	0x3ce6c1df	0.028168617
243	0xbd8efddd	-0.06982014
244	0x3c02f99b	0.007994081
245	0xbcf1222e	-0.029435243
246	0xbd8ccc3f	-0.06874894
247	0x3bab78d5	0.00523291
248	0xbd819c62	-0.06328656
249	0x3d6dbb46	0.058039926
250	0xbcd82359	-0.026384043
251	0x3d4b24a2	0.049595483
252	0xbc47e59b	-0.012200738
253	0x3cef75df	0.02923101
254	0xbd721764	-0.05910434
255	0xbd35f10f	-0.044419345

branch_net.net.3.bias f4 [35]
0	0x3d17ae87	0.037031677
1	0x3d675a4f	0.05648261
2	0xbcdc1def	-0.026869742
3	0xbccc0d12	-0.024908576
4	0x3c323acc	0.010878276
5	0x3d325605	0.043539066
6	0x3d3f26de	0.046667926
7	0xbca7d711	-0.020488294
8	0x3d3f35d2	0.046682186
9	0x3d825f2e	0.0636581
10	0xbd84a385	-0.064765014
11	0x3cb87a8e	0.022519376
12	0x3d944b16	0.07240884
13	0x3d61fb1c	0.055171117
14	0xbcdee577	-0.027209027
15	0x3d1f2d05	0.038861293
16	0xbd6d6039	-0.057953093
17	0x3d625b96	0.055263124
18	0x3d219a78	0.039453954
19	0x3d8d6f39	0.0690598
20	0x3d8bc8a8	0.068253815
21	0xbd5ec527	-0.054387238
22	0xbcd67e86	-0.026183378
23	0x3d8569f9	0.06514353
24	0xbd5a78d1	-0.053337876
25	0xbd236270	-0.0398888
26	0x3d88576e	0.06657301
27	0xbd0b000f	-0.033935603
28	0x3d2991c7	0.04139879
29	0xbcdc5414	-0.02689556
30	0xbd449aec	-0.047999308
31	0xbd59abc7	-0.053142335
32	0xbd20f5ef	-0.03929704
33	0xbd9bbf33	-0.07604828
34	0x3cb7468c	0.022372507

trunk_net.net.0.weight f4 [160, 1]
0	0x3f66158f	0.89876646
1	0xbc9a0cf4	-0.018805005
2	0x3f099d1d	0.5375536
3	0x3f40a121	0.75245863
4	0x3f5b1346	0.85576284
5	0x3b4ebeb5	0.0031546776
6	0x31a5e7e5	4.8284954e-09
7	0xb3b676a7	-8.496618e-08
8	0x3f5c52d0	0.8606386
9	0x3f0f6bb0	0.56023693
10	0xbed2a06d	-0.4113802
11	0x3ef0fd25	0.47068134
12	0x3f43c697	0.764749
13	0x3ab73d33	0.0013980031
14	0xbaa7aa68	-0.0012791874
15	0xbf10396d	-0.56337625
16	0x3f622d5c	0.8835046
17	0x3ed9c3cb	0.4253219
18	0x3f6dc239	0.92874485
19	0x3e1fd826	0.15609798
20	0x3eb6c673	0.3569828
21	0x3ecffa92	0.40620857
22	0xbcfe1863	-0.031017488
23	0x3f6a5b44	0.9154551
24	0x3ec96561	0.39335158
25	0xbeafa80a	-0.3430789
26	0x3f2870dc	0.6579721
27	0xbf7aa65a	-0.9791008
28	0x3e25b24b	0.16181295
29	0xbe9aeaec	-0.30257356
30	0x3f47440a	0.77838194
31	0xbebdc5a4	-0.3706485
32	0x3f4835d1	0.7820712
33	0xbf2d5695	-0.6771024
34	0xbed00531	-0.4062896
35	0xbe680d47	-0.22661315
36	0xb982fc2f	-0.00024983424
37	0x3f318cdb	0.69355553
38	0x3f6bc950	0.92104053
39	0xbc36ae25	-0.011149918
40	0xbf556414	-0.8335583
41	0xbdff21ef	-0.12457644
42	0xbf2fa34b	-0.6860854
43	0xbd604338	-0.054751605
44	0x3f052d33	0.52022094
45	0xbf4571f2	-0.7712699
46	0xbe36b8d8	-0.1784395
47	0xbe6db06a	-0.23211828
48	0xbef56c86	-0.4793436
49	0xbed71b0d	-0.42012826
50	0x3cf2058d	0.029543662
51	0xbedeb8f1	-0.43500474
52	0xb5d9ce7e	-1.6227857e-06
53	0x3ea257da	0.3170765
54	0x3e9bb17e	0.30408853
55	0xbf2b63ba	-0.66949046
56	0x3f14f618	0.5818801
57	0xb841cf78	-4.6208006e-05
58	0x3f4a7f23	0.79100245
59	0x3ef39101	0.47571567
60	0xbdebb2ff	-0.1150875
61	0x3f05e948	0.52309084
62	0xbe9f06ec	-0.31059968
63	0x3d81a553	0.06330361
64	0x3b503ede	0.0031775753
65	0x3f612c78	0.8795848
66	0x3d17da63	0.037073504
67	0x3e9b9638	0.30388045
68	0xbf72c951	-0.94838434
69	0xbdef005f	-0.11669993
70	0xbbe711f4	-0.0070517007
71	0xbe885afa	-0.2663191
72	0xbe373b6b	-0.1789376
73	0xbf1c8f64	-0.61156297
74	0x3f39d349	0.7258802
75	0xbc140edb	-0.009036745
76	0xbf02674d	-0.50938874
77	0xbe1bed50	-0.15227246
78	0xbd6b676e	-0.057471685
79	0xbf550314	-0.8320782
80	0x3effc41e	0.49954313
81	0x89074f47	-1.628731e-33
82	0xbdd3e719	-0.10346813
83	0x3f50de50	0.8158922
84	0xbebd1026	-0.36926383
85	0x3ecc7d0f	0.39939162
86	0x3f7c4b2c	0.98552203
87	0xbf2097ba	-0.62731516
88	0xbdf127d0	-0.11775172
89	0x3f4a6e32	0.79074395
90	0x3f1f7097	0.62281173
91	0x3efb90a0	0.49133778
92	0xbf2c3c9e	-0.67279994
93	0xbeadea20	-0.33967686
94	0xbe2b2cc8	-0.16716301
95	0xbf1ab8ab	-0.6043803
96	0x3f1c6ea1	0.61106306
97	0xbf166819	-0.5875259
98	0x3e541b32	0.20713499
99	0x3f0c7d21	0.5487843
100	0x3e750888	0.23929036
101	0x3eb63fa3	0.35595426
102	0x3f0d2501	0.5513459
103	0xbeebed72	-0.46079594
104	0x3f0aa34f	0.5415544
105	0x3f59afe8	0.85034037
106	0x3f1d77f2	0.6151115
107	0x3f0fe187	0.562035
108	0xbf177d11	-0.5917521
109	0x3ec9bdad	0.39402524
110	0xbeb17c17	-0.34664986
111	0xbdd5211d	-0.104067065
112	0xbc992c16	-0.01869778
113	0x3e972cb3	0.2952629
114	0xbedb433b	-0.4282473
115	0xbe8030a5	-0.25037113
116	0xbd10e753	-0.035376858
117	0xbe805cff	-0.2507095
118	0x3f7bc46b	0.98346585
119	0x3f39b0f3	0.7253563
120	0xbf2d9df0	-0.6781912
121	0x3f2994e4	0.66242814
122	0xbf71124e	-0.94168556
123	0xbf1797ba	-0.5921589
124	0xbf2fc997	-0.68666977
125	0xbed0c148	-0.40772462
126	0x3f4416a6	0.7659706
127	0xb23289a1	-1.0392257e-08
128	0x3f4c27f8	0.7974849
129	0x3f543535	0.8289369
130	0xbe34db2f	-0.17661737
131	0xbf1eb637	-0.6199679
132	0x3f731e36	0.94967973
133	0xbf239b5a	-0.6390892
134	0xbe0e956c	-0.13924187
135	0x3d4da3af	0.05020493
136	0xbf501a96	-0.81290567
137	0xbe9194c5	-0.28433815
138	0xbd654581	-0.055974487
139	0x3efb341f	0.49063203
140	0x3dd03f6a	0.10168345
141	0x3ddb125f	0.106968634
142	0xbef37cb7	-0.47556087
143	0xbf76223a	-0.96145976
144	0xbf17618d	-0.59133226
145	0x3f3f3bf2	0.74700844
146	0x3f1b3f53	0.606435
147	0x3f3ef6ec	0.7459552
148	0x3f4bf559	0.79671246
149	0x3e45590a	0.19272247
150	0x3eb592e7	0.3546364
151	0x3f6fadb1	0.9362441
152	0x3f5b6b01	0.8571015
153	0x3e0b787a	0.13620177
154	0x3f637742	0.8885385
155	0xbd98c88a	-0.07460125
156	0xbe41c44b	-0.18922536
157	0xbeae89a2	-0.3408938
158	0x3e1caff1	0.15301491
159	0x389860a1	7.265923e-05

trunk_net.net.0.bias f4 [160]
0	0x3f109f82	0.5649339
1	0xbc34ded7	-0.011039457
2	0xbe93e43c	-0.28885067
3	0x3ec469ac	0.3836187
4	0xbd4911ea	-0.04908935
5	0xbf29112d	-0.66041833
6	0xb36a9dfe	-5.4626064e-08
7	0xbd978cba	-0.07399888
8	0x3ec3a784	0.38213742
9	0x3f1a0f67	0.6017975
10	0x3f2699d3	0.6507847
11	0x3f70265f	0.9380855
12	0xbf1e1d0b	-0.61763066
13	0xbf2d303c	-0.67651725
14	0xbf12095a	-0.5704552
15	0xbe339b45	-0.175397
16	0x3f5f6a55	0.87271625
17	0xbe9b8124	-0.30371964
18	0xbf0a1b0d	-0.53947526
19	0xbf27da25	-0.6556724
20	0xbf18fa06	-0.59756505
21	0x3e7c3cb5	0.24632533
22	0xbf1f3f04	-0.6220553
23	0xbe967a52	-0.29390198
24	0x3ed57373	0.41689643
25	0xbf29b86f	-0.6629705
26	0x3f5d4b89	0.8644338
27	0x3ecd89dd	0.40144244
28	0xbe336d6d	-0.17522211
29	0xbe6ed459	-0.23323192
30	0x3e938b02	0.28816992
31	0xbe5b0d2d	-0.21391745
32	0x3f144383	0.57915515
33	0xbec7fe33	-0.39061126
34	0xbd6dc89d	-0.058052648
35	0x3ecfc22b	0.40577826
36	0xbf2d6e0d	-0.6774605
37	0xbef44635	-0.47709814
38	0x3f629eba	0.8852345
39	0xbe066dd0	-0.13127828
40	0x3f157163	0.5837614
41	0xbf142627	-0.57870716
42	0x3f5d7a33	0.86514586
43	0xbcb98f70	-0.022651404
44	0xbe9edd5e	-0.31028265
45	0x3f4836df	0.78208727
46	0xbf071165	-0.52760917
47	0x3e0bc91c	0.13650936
48	0xbd8da42a	-0.069160774
49	0xbf154187	-0.5830311
50	0xbd926ccd	-0.07149658
51	0xbee6843d	-0.45022765
52	0xbc843a8d	-0.0161412
53	0x3f453687	0.7703633
54	0x3f12d678	0.57358503
55	0x3e79a5bc	0.24379629
56	0x3f6e212e	0.9301938
57	0xbe529102	-0.20563129
58	0x3f66bba8	0.9013009
59	0xbe8da969	-0.27668312
60	0xbcd46e9e	-0.025931653
61	0x3dbcfb77	0.092276506
62	0xb72cb9ba	-1.0295242e-05
63	0x3d643a52	0.05571968
64	0xbb811ede	-0.0039404472
65	0xbe4f5e6d	-0.20250864
66	0xbe6d2f76	-0.23162636
67	0x3eae7827	0.34076044
68	0x3f6e8dd6	0.93185174
69	0x3eba89dd	0.36433306
70	0xbef36329	-0.4753659
71	0xbeec89cd	-0.46198884
72	0x3dd5fced	0.104486324
73	0xbd851549	-0.064982004
74	0x3e9ba775	0.30401197
75	0xbe1447ff	-0.1448059
76	0x3df9302e	0.12167393
77	0xbe9c7f87	-0.30566046
78	0x3d319adb	0.043360572
79	0x3f2b616b	0.66945523
80	0xbe12a95b	-0.14322416
81	0xbe95d812	-0.2926641
82	0x3ef2e8e8	0.47443318
83	0x3e397a98	0.18113172
84	0x3db794a4	0.08963898
85	0xbecf2198	-0.40455317
86	0x3f623e7f	0.8837661
87	0x3f516270	0.8179083
88	0xbf306429	-0.6890283
89	0x3f24e55e	0.64412487
90	0x3ed07424	0.40713608
91	0x3e6b2fad	0.22967406
92	0xbef7e6bb	-0.4841822
93	0x3ead2bcf	0.33822486
94	0xbdfd5b0c	-0.123708814
95	0x3f2b521a	0.6692215
96	0x3f6edf5c	0.9330957
97	0xbf1a9605	-0.6038516
98	0xbef7c699	-0.48393705
99	0x3efb6e8b	0.49107775
100	0xbd5ba790	-0.053626597
101	0xbf21b404	-0.6316531
102	0xbebb30e7	-0.36560747
103	0x3f3eec31	0.7457915
104	0x3e919a73	0.28438148
105	0xbf0e36e6	-0.5555252
106	0x3e52892c	0.2056014
107	0xbe3d2a7d	-0.18473239
108	0x3e858c04	0.26083386
109	0x3e68d02f	0.22735666
110	0xbee8e9e5	-0.45490947
111	0x3ebb18b9	0.365423
112	0xb504e55a	-4.950758e-07
113	0xbf071b1e	-0.5277575
114	0x3e95a1dc	0.2922505
115	0x3f4fdd60	0.81197166
116	0x3f2b9994	0.67031217
117	0xbeb15c55	-0.34640756
118	0xbf0f4056	-0.55957544
119	0x3f4929aa	0.785792
120	0xbe851693	-0.25993785
121	0xbf010061	-0.50391203
122	0x3e711239	0.23542108
123	0xbf18877c	-0.5958173
124	0xbc870989	-0.016484039
125	0x3f7059cd	0.93887025
126	0xbe960168	-0.29297948
127	0xa762d55b	-3.147946e-15
128	0xbee5a44f	-0.4485192
129	0xbe2ecf7c	-0.17071337
130	0x3de07fd7	0.109618835
131	0x3f71801e	0.94336116
132	0xbf4084f8	-0.75202894
133	0xb94ad376	-0.00019342997
134	0xbe23f2e2	-0.16010621
135	0xbee47f57	-0.44628403
136	0x3e0b9f20	0.1363492
137	0xbd9b9cf7	-0.07598298
138	0xbf17218b	-0.5903556
139	0xbb4b79ce	-0.0031047943
140	0xbe1103dc	-0.14161628
141	0xbe9f2870	-0.3108554
142	0x3de6f239	0.11276669
143	0x3e310e4f	0.17290615
144	0xbdcb2bd6	-0.099204704
145	0xbeb890ea	-0.3604806
146	0xbf31db89	-0.6947561
147	0xbf0cc641	-0.5499001
148	0x3ef00988	0.46882272
149	0xbe0c2891	-0.1368735
150	0xbeb652fb	-0.35610184
151	0xbf3946d9	-0.7237373
152	0xbf093753	-0.53600043
153	0x3ec5698b	0.38557085
154	0x3da50af4	0.0805873
155	0x3e4ef983	0.20212369
156	0x3f7a2f0f	0.97728056
157	0xbe740b45	-0.23832424
158	0x3f7a35cf	0.97738355
159	0xbcba8d67	-0.022772504

trunk_net.net.3.weight f4 [160, 160]
0	0x3cc62479	0.024187313
1	0x9569b66d	-4.7197884e-26
2	0xbcb1176b	-0.021617612
3	0xbd374826	-0.04474654
4	0x3d0ba450	0.034092247
5	0x340659d0	1.2512396e-07
6	0x1951d431	1.08478985e-23
7	0x35a31e9c	1.2153355e-06
8	0xbd35c597	-0.04437789
9	0x3d90763f	0.07053804
10	0x3d82f871	0.06395043
11	0xbd552883	-0.052040588
12	0x3d852342	0.065008655
13	0x2c4bc013	2.8954658e-12
14	0xb14e7d91	-3.0048322e-09
15	0x195a5cad	1.12890516e-23
16	0x3cd04082	0.025421385
17	0x3d0ee6f6	0.03488823
18	0x3d397fbc	0.045287833
19	0xb119caa2	-2.2379614e-09
20	0x90be073b	-7.4952926e-29
21	0x3d54ea88	0.05198148
22	0x8cf08eba	-3.7063755e-31
23	0x3c93c4b2	0.018038128
24	0xbd241896	-0.04006251
25	0x92ad2e8d	-1.0929311e-27
26	0xbd34efe1	-0.04417408
27	0x3d5f6049	0.054535184
28	0x0e3f07bc	2.3546292e-30
29	0x0e39ad49	2.2886444e-30
30	0xbd2ad1f3	-0.04170413
31	0x2b261833	5.900863e-13
32	0xbd1b88b7	-0.03797218
33	0xa7543df0	-2.9454487e-15
34	0x34380da2	1.7141295e-07
35	0x3d3e8331	0.046511833
36	0x1080385f	5.057395e-29
37	0x3cf0d45a	0.029398132
38	0xbd472aff	-0.04862499
39	0x93e4d1bf	-5.7762117e-27
40	0x3da347a9	0.079726525
41	0x18eed830	6.173985e-24
42	0xbd7eca03	-0.062204372
43	0xb4d2b6c6	-3.9248533e-07
44	0x3c2a294f	0.010385825
45	0xbaf33381	-0.0018554778
46	0x285ac2d4	1.2143678e-14
47	0x3cab02ac	0.020875297
48	0xaf9382e4	-2.6832148e-10
49	0x0e0bfe8c	1.7255633e-30
50	0x279596e3	4.15194e-15
51	0xad5f1a26	-1.26818885e-11
52	0x0fd1d704	2.0691812e-29
53	0xbd7a26ba	-0.06107209
54	0x3d63ab6b	0.0555834
55	0xbd8db195	-0.06918637
56	0x3c8f6544	0.017504342
57	0xa07a57a3	-2.120482e-19
58	0xbbc7767d	-0.006087123
59	0x3cd8fe0f	0.026488332
60	0x3465e5a6	2.1410833e-07
61	0xbd53b2c3	-0.051684152
62	0x351e0ce3	5.887834e-07
63	0x3d93830f	0.07202732
64	0x8f42cce0	-9.604396e-30
65	0x3d39ee12	0.045393057
66	0x179b1ff2	1.0024704e-24
67	0xbd9e188f	-0.07719528
68	0xbd5626ac	-0.052282974
69	0x3cdc2f44	0.026878007
70	0xae92d63c	-6.677367e-11
71	0x2f3d5f7a	1.722337e-10
72	0xbac8577c	-0.0015284861
73	0x3502a417	4.8667556e-07
74	0xbc0a96e0	-0.008458823
75	0xb5c5cdce	-1.4737541e-06
76	0xba83d947	-0.001005926
77	0x2b716b57	8.5769364e-13
78	0xbd21c6a9	-0.039496098
79	0x3ca922f7	0.020646555
80	0xbd426e06	-0.047468208
81	0xb320af13	-3.7412132e-08
82	0xbc1c49e4	-0.009539101
83	0x3d4d3361	0.050097827
84	0xbd2855b2	-0.04109735
85	0xb29baba1	-1.8122423e-08
86	0x3d96c284	0.0736132
87	0x3d5f26c4	0.05448033
88	0xaef924ec	-1.1329768e-10
89	0x3d8537d6	0.065047905
90	0x3d79cde2	0.06098736
91	0xbd873356	-0.066015884
92	0x267c13bd	8.7456814e-16
93	0x3d1bf903	0.038079273
94	0xb0e4b7b2	-1.6641393e-09
95	0xbd8141c8	-0.06311375
96	0x3d445d61	0.047940616
97	0x1cf70d88	1.6348587e-21
98	0x118f63ef	2.262301e-28
99	0xbc53df19	-0.012931609
100	0x3c963a93	0.018338477
101	0xa477eea4	-5.3761724e-17
102	0xbbd89ab9	-0.0066102413
103	0x3d61b92e	0.05510824
104	0xbd8a8e52	-0.06765427
105	0x3cad2934	0.021137811
106	0xbd6c7d76	-0.057736836
107	0xbc9982a2	-0.018739048
108	0xbd795464	-0.060871497
109	0x3d2ee31e	0.042697065
110	0x999fb1be	-1.6512004e-23
111	0x3d89cfe3	0.06729104
112	0xb324f049	-3.8402764e-08
113	0x350dcf0a	5.2827875e-07
114	0x3d2887d5	0.041145165
115	0xbd00cffc	-0.03144835
116	0x3d1e93ff	0.03871536
117	0xb32055e8	-3.7331034e-08
118	0xbcee7b19	-0.029111432
119	0x3ca1be66	0.01974411
120	0x9b6cd5b4	-1.9590514e-22
121	0x3d970b63	0.07375219
122	0xb836f08e	-4.3616215e-05
123	0x2e30c576	4.0193147e-11
124	0xa61e9806	-5.502329e-16
125	0xbcbb72c9	-0.022881882
126	0xbd4e476d	-0.050361086
127	0x1e39c560	9.834635e-21
128	0xbd033778	-0.03203532
129	0xbc55ddfa	-0.013053412
130	0x3c87803f	0.016540645
131	0x3c9d4123	0.019196099
132	0x3d8c1f0e	0.06841861
133	0x35a90485	1.2592797e-06
134	0x35c8df73	1.4966193e-06
135	0x17b4e815	1.1690813e-24
136	0xbe1863d4	-0.14881831
137	0xb0bab37c	-1.3584294e-09
138	0xb352540c	-4.8970875e-08
139	0x3ca28b33	0.019841766
140	0xb55f735c	-8.3241844e-07
141	0x34326edd	1.6617874e-07
142	0xbc7af8f5	-0.015318145
143	0xbda33e2a	-0.07970841
144	0x15a51f37	6.669222e-26
145	0xbc813405	-0.015771875
146	0x34bbaac7	3.495572e-07
147	0xbcb4dd0e	-0.022078063
148	0xbc2b475c	-0.010454025
149	0x3bdeb265	0.0067961686
150	0x3af8e5d2	0.001898939
151	0x3c5a1c50	0.013312414
152	0x3d7b1542	0.06129957
153	0xbd377338	-0.044787616
154	0xbd56f425	-0.052478928
155	0x3d7c2bb0	0.0615651
156	0xbd21f47d	-0.039539803
157	0xb535a9b2	-6.7674694e-07
158	0x3cd64c43	0.026159411
159	0xad079f77	-7.70927e-12
160	0x3d9f85ac	0.07789168
161	0x302358bf	5.942517e-10
162	0x3d1eece9	0.038800154
163	0xbd9701e8	-0.073734105
164	0xbcb0e626	-0.021594118
165	0x9a5720b3	-4.4487372e-23
166	0x3595843b	1.1139849e-06
167	0x92b08508	-1.1139956e-27
168	0x3cfcd01f	0.030860959
169	0xbd7c699c	-0.061624154
170	0x3da2a345	0.079412974
171	0x3d978ebd	0.07400272
172	0x3caccea2	0.021094624
173	0x9a042ad8	-2.733157e-23
174	0xb48e0761	-2.645493e-07
175	0x358d9b25	1.0550472e-06
176	0xbd4ecd70	-0.05048889
177	0x3d814a46	0.06312995
178	0xbd9903e1	-0.07471443
179	0xa14890f4	-6.795448e-19
180	0x105d7e68	4.3681945e-29
181	0x3d2c3920	0.042046666
182	0x2c07a995	1.927879e-12
183	0x3c35f442	0.011105599
184	0x3d81394b	0.06309756
185	0x2599f352	2.670615e-16
186	0x3d3973b8	0.045276374
187	0x3da81c2a	0.08208497
188	0x9286a12f	-8.496324e-28
189	0xb3c235dd	-9.043627e-08
190	0xbd89fe19	-0.067379184
191	0xa45bb69f	-4.764274e-17
192	0x3b04e5b9	0.0020278527
193	0xb270e726	-1.4022396e-08
194	0x31c94cff	5.8586234e-09
195	0x3b83742d	0.004011652
196	0xb5b14d11	-1.3209957e-06
197	0xbd57cfde	-0.052688472
198	0x3d2cb73a	0.042166926
199	0x9252d765	-6.652981e-28
200	0x3cf17575	0.029474953
201	0x33c75f22	9.283964e-08
202	0x3d630fa1	0.055434827
203	0x904cf444	-4.0420082e-29
204	0x3d38273d	0.044959296
205	0xbcb84e2f	-0.022498218
206	0x0dfa5d34	1.5429877e-30
207	0x3d33f7e4	0.04393758
208	0xb21f1369	-9.259431e-09
209	0x3414c94f	1.385681e-07
210	0xa42147db	-3.4972174e-17
211	0x34f996d4	4.6489606e-07
212	0x91a67e68	-2.6268086e-28
213	0x3d59e27e	0.053194515
214	0x3c510a33	0.012758779
215	0xbb5aaae0	-0.003336601
216	0xbc27b009	-0.010234841
217	0xa417de66	-3.2931284e-17
218	0xbc1cafa7	-0.009563363
219	0x3d7a612f	0.061127838
220	0x3513a236	5.4997815e-07
221	0x3cfa336c	0.030542098
222	0x8d7fd8a8	-7.883873e-31
223	0xbc364bc1	-0.01112646
224	0x1f7ffbbe	5.4206587e-20
225	0xbd10a0b1	-0.035309497
226	0x3249be21	1.174297e-08
227	0x3d055a06	0.032556556
228	0xbd51926f	-0.05116504
229	0xbd62c2fe	-0.05536174
230	0xb4dfcb32	-4.168483e-07
231	0x1ad9919e	8.9984354e-23
232	0x3da439dc	0.08018848
233	0xb2136762	-8.580033e-09
234	0xbd076b11	-0.03306109
235	0x120f3333	4.518595e-28
236	0x3cca8b7a	0.02472471
237	0xb3db2f25	-1.0206558e-07
238	0xbd41f3ef	-0.047351774
239	0xbcc66145	-0.024216304
240	0xbc5d60d0	-0.013511851
241	0x1926bd32	8.6202065e-24
242	0xbd1ed850	-0.03878051
243	0x3cdd4291	0.02700928
244	0x3dbc2d01	0.09188271
245	0x9708d071	-4.420706e-25
246	0x3d5db5fc	0.054128632
247	0x3c9dbade	0.019254144
248	0x2ce3cc11	6.474384e-12
249	0xbd9caa66	-0.076496884
250	0xbd528543	-0.05139662
251	0x3c99cbe5	0.018773982
252	0x9c59c476	-7.2053197e-22
253	0xbd61231a	-0.054965116
254	0x1715c7e3	4.839679e-25
255	0x3b771840	0.0037703663

trunk_net.net.3.bias f4 [160]
0	0x3d85a6ff	0.065259926
1	0xbcc83cae	-0.024442997
2	0xbb3c9939	-0.0028777851
3	0xbbb203d3	-0.005432585
4	0xbd994a20	-0.07484841
5	0xbc9274f7	-0.017878039
6	0xbd043777	-0.032279458
7	0xbcb5c002	-0.022186283
8	0xbcfa5692	-0.030558858
9	0x3d4264b8	0.047459334
10	0x3c0cdbb5	0.008597304
11	0x3d24a2d3	0.040194344
12	0xbcb90c38	-0.022588834
13	0x3ca79e0d	0.020461107
14	0x3d81064c	0.06300029
15	0xbb1293c8	-0.0022365917
16	0x3cdb0d85	0.026739845
17	0x3d5bd863	0.05367316
18	0xbd77e9d3	-0.060525727
19	0xbbed15d1	-0.0072352667
20	0xbd790210	-0.060792983
21	0x39ecdaeb	0.00045176534
22	0xbcd8da5e	-0.026471313
23	0x3c128de3	0.008944961
24	0xbcbee667	-0.023303224
25	0xbd3ffb65	-0.046870608
26	0xbd1fefe3	-0.039047133
27	0x3d54a2b5	0.051912982
28	0x3c813aeb	0.015775165
29	0xbd13e9e2	-0.03611172
30	0xaec62cc5	-9.01195e-11
31	0x259da96b	2.734996e-16
32	0x3c12e60f	0.008965983
33	0x3129af9f	2.4692566e-09
34	0x3d0ca964	0.03434123
35	0x3c066361	0.008202405
36	0xbd1b81b0	-0.037965477
37	0xbd5f1dba	-0.05447171
38	0x3c258f29	0.010104933
39	0xbd851e29	-0.06499893
40	0xbd3dc952	-0.046334572
41	0xb8d0be34	-9.953641e-05
42	0x0e321ba0	2.1953495e-30
43	0x3d0700c7	0.032959726
44	0x3cb12429	0.021623688
45	0xb3477fa1	-4.6449376e-08
46	0x3d909715	0.070600666
47	0xbbd56c61	-0.006513164
48	0xbc2ca38f	-0.010537042
49	0xb5b37d8e	-1.337308e-06
50	0xb2494777	-1.1715989e-08
51	0xbba6abc6	-0.005086395
52	0xb5af4c0d	-1.306065e-06
53	0x3c501189	0.012699493
54	0xbd9103e6	-0.07080822
55	0xbd70df65	-0.058806796
56	0x3cfc76c6	0.030818354
57	0x3c1716dc	0.009221759
58	0xbb7365ba	-0.0037139491
59	0xbcdf87cf	-0.027286438
60	0x3d91d64f	0.07120954
61	0xbd65b3ee	-0.056079797
62	0x3ce26787	0.027637256
63	0x3d9d797a	0.076891854
64	0xaa8b131a	-2.4704614e-13
65	0xb5200770	-5.961547e-07
66	0xb3397cf1	-4.3187303e-08
67	0xbd04a787	-0.03238633
68	0xbc8bce6b	-0.017066201
69	0xbb07a820	-0.0020699576
70	0xbc37afe7	-0.011211372
71	0x3d7c2948	0.061562806
72	0xb2fc9498	-2.9404234e-08
73	0xb6cb505c	-6.0592265e-06
74	0xbd05f24c	-0.032701775
75	0x3c59a292	0.013283389
76	0xbd2a839f	-0.04162943
77	0xbb11cf14	-0.0022248672
78	0xbb36d865	-0.0027899977
79	0x2f3494e5	1.6423803e-10
80	0x3d5b6037	0.053558555
81	0x3d6c9447	0.057758596
82	0x3c0679c5	0.008207743
83	0x3d98231a	0.0742857
84	0x3d200c50	0.039074242
85	0x3d1ac5f1	0.037786428
86	0xbd90d93f	-0.070726864
87	0x3d1efe54	0.038816765
88	0x3ba4239d	0.0050091282
89	0x3d955cff	0.07293128
90	0xbda38002	-0.079834
91	0xbd0f127f	-0.03492975
92	0xbc204c65	-0.009783839
93	0xbcf2a785	-0.029620895
94	0xbd82ff55	-0.06396357
95	0x3d1f3f2a	0.038878597
96	0x3d2512b0	0.040301025
97	0xbcc0dd52	-0.023543034
98	0xbd4ebd30	-0.050473392
99	0x3d5e0adf	0.054209586
100	0xbd91a8eb	-0.07112297
101	0x3b8e6af8	0.0043462478
102	0x3d80e1ea	0.0629309
103	0xbd81efaf	-0.06344544
104	0x3592d161	1.0938785e-06
105	0x3d843c8a	0.064568594
106	0x3d364ed7	0.04450878
107	0x3c5b8bcd	0.01340003
108	0xbb0acbe3	-0.0021178655
109	0x3d3ba242	0.045809038
110	0x3d2c8635	0.042120177
111	0xbb816185	-0.003948393
112	0xbd711278	-0.058855504
113	0xbc4feff7	-0.012691489
114	0xba9df6c7	-0.0012051695
115	0xbb7f4873	-0.0038953095
116	0xbc50bb0e	-0.01273991
117	0xbc8ff9e4	-0.017575212
118	0xb5c1fcd7	-1.4453207e-06
119	0x3c28db89	0.0103062475
120	0x3b793805	0.0038027775
121	0xb3df6d64	-1.0404145e-07
122	0x3d33d218	0.043901533
123	0xbc3dc1e9	-0.011581876
124	0x3d168dfc	0.0367565
125	0x3bc9538b	0.0061439923
126	0xbbb1bde0	-0.005424246
127	0x3d53b993	0.05169065
128	0xbb6e4242	-0.003635541
129	0x3d710896	0.05884608
130	0x3d6249d7	0.0552462
131	0x3ca2678a	0.019824762
132	0xbd5f6120	-0.054535985
133	0xbd36d87b	-0.044640046
134	0x3d1486b2	0.036261268
135	0xbd9b4dec	-0.07583222
136	0x2fba9be7	3.3943978e-10
137	0x3a36f7ba	0.0006979663
138	0x3be0c079	0.006858882
139	0x3d8078cc	0.0627304
140	0xbdafd02e	-0.08584629
141	0xbc837229	-0.016045647
142	0x3d0708a0	0.03296721
143	0xbccd7706	-0.025081169
144	0xba433465	-0.0007446467
145	0xadc06918	-2.1874544e-11
146	0xbd4d2785	-0.050086517
147	0xba0d20e6	-0.00053836254
148	0x3c2af2d0	0.010433868
149	0x3d4c8a93	0.049936842
150	0x2fb4c2e8	3.2880298e-10
151	0xb1c0150c	-5.590328e-09
152	0x3cdb4070	0.026764125
153	0x3c454dd8	0.012042485
154	0xbd9d07e4	-0.07667521
155	0x3d02ca1b	0.031931024
156	0xbd5713a6	-0.052508973
157	0xbcb4e16d	-0.022080148
158	0xbd4e8a0a	-0.050424613
159	0x3d93985d	0.07206795

trunk_net.net.6.weight f4 [160, 160]
0	0x3d99bb92	0.07506479
1	0xbcdea014	-0.02717594
2	0x38817d38	6.174523e-05
3	0xb4f18cb7	-4.4992132e-07
4	0xbd16c313	-0.03680713
5	0x2cafff99	5.002176e-12
6	0x3d661eff	0.056181904
7	0xbd2fde3e	-0.042936556
8	0xbc9ba87b	-0.019001236
9	0x3d8e20ea	0.069398716
10	0x3bfa1df8	0.007632967
11	0x3d998184	0.07495406
12	0xbcee2441	-0.029070022
13	0x3d34b890	0.044121325
14	0x3a83850a	0.0010034156
15	0x2d81563c	1.4703898e-11
16	0xbd960f4e	-0.07327138
17	0xbd4aec01	-0.049541477
18	0x3c06f4b1	0.00823705
19	0xbc35b0f4	-0.011089552
20	0x3cf2c239	0.029633628
21	0xb96d6d41	-0.00022642782
22	0x3d6de3f2	0.058078714
23	0xbdc6b25f	-0.0970199
24	0xbd3b0f4b	-0.04566888
25	0xbd5dce3b	-0.054151755
26	0xbda81172	-0.082064524
27	0xbd1e21ad	-0.038606334
28	0x3a75ba18	0.00093737384
29	0x39086c94	0.00013010419
30	0x2e92b2b7	6.6710575e-11
31	0x2b2fcca5	6.245649e-13
32	0xbd81b30c	-0.063329786
33	0x34b12be1	3.3000745e-07
34	0x3d42c298	0.04754886
35	0x3c6bb490	0.014386311
36	0xbcf23d8c	-0.029570363
37	0x3d79438f	0.060855445
38	0xbd61d9f9	-0.055139516
39	0xbd8d7d90	-0.06908715
40	0xbd9eeb71	-0.07759751
41	0xb250956e	-1.214117e-08
42	0xb423207c	-1.5192376e-07
43	0x3c874656	0.016513031
44	0x3b8fef60	0.0043925494
45	0x28320b5f	9.883451e-15
46	0x3bf0b1eb	0.007345428
47	0x3b98148f	0.0046411227
48	0xbd546a8b	-0.05185942
49	0x1c8ad1aa	9.186271e-22
50	0x143d4022	9.5547095e-27
51	0x3cc92d30	0.02455768
52	0xa8200432	-8.882694e-15
53	0xbc383774	-0.01124369
54	0xb3dacffd	-1.0189249e-07
55	0xbbb8792a	-0.0056296783
56	0xbe067ac1	-0.13132764
57	0xbd6e3e3e	-0.058164828
58	0x3da3f177	0.0800504
59	0xbd990e47	-0.07473426
60	0x3d8e2bb7	0.06941932
61	0xbe0e1058	-0.13873422
62	0xbba28dcc	-0.004960751
63	0x3cb9d4b2	0.022684429
64	0x343691d9	1.700313e-07
65	0x99735d6f	-1.2581674e-23
66	0x308cf728	1.0256587e-09
67	0x1cd3b602	1.4009857e-21
68	0x3d777b21	0.06042016
69	0x3c87872a	0.016543943
70	0x3c7f071c	0.01556566
71	0x37a76146	1.9953248e-05
72	0x99019fa9	-6.701387e-24
73	0x35176163	5.63936e-07
74	0xbd84c063	-0.06482007
75	0xbc42172a	-0.011846343
76	0x3db0cc20	0.08632684
77	0x34bcbfcd	3.5157282e-07
78	0xbd2ab5db	-0.041677337
79	0xad5e9635	-1.2652592e-11
80	0xbd470042	-0.04858423
81	0xbcddf68c	-0.027095102
82	0xbceee73f	-0.029163001
83	0x3ce94595	0.028475562
84	0xbc9dabd0	-0.019246966
85	0xbbd36604	-0.00645137
86	0xbca07ffb	-0.019592276
87	0xbcc10788	-0.023563161
88	0x3441ab1b	1.8036773e-07
89	0x3c579baa	0.013159672
90	0xbce86217	-0.028367085
91	0x3cdf658d	0.027270103
92	0x3d9b5dab	0.07586225
93	0xbdbfb949	-0.09361512
94	0xbd0ccf54	-0.03437741
95	0x3c8b186d	0.01697942
96	0x3c490a6c	0.012270551
97	0x3c8b7bfa	0.01702689
98	0xbd02c607	-0.031927135
99	0x3d8d9cc4	0.06914666
100	0xbda2b49b	-0.07944604
101	0x3c0156e7	0.007894254
102	0xbd8454f8	-0.06461519
103	0x3c7b6922	0.01534489
104	0x35b60437	1.3561283e-06
105	0xbd4935f0	-0.049123704
106	0x3c12549d	0.008931306
107	0xbd5a0a39	-0.053232405
108	0xb580673f	-9.566792e-07
109	0xbd310567	-0.043218043
110	0xbd604fba	-0.054763533
111	0x3bd693ed	0.006548396
112	0x3d3511b4	0.044206336
113	0x3d926b28	0.07149345
114	0xb9ae95dc	-0.0003329952
115	0xbb31e625	-0.0027145233
116	0xbadb4cbf	-0.0016731246
117	0xbb8094e8	-0.003924001
118	0x8c58db87	-1.6706096e-31
119	0x3cb76751	0.022388132
120	0xbceb278e	-0.028705385
121	0xb39d20ca	-7.3168465e-08
122	0x3d6c3293	0.05766542
123	0x3c209e63	0.009803387
124	0x3d3b7e7c	0.04577492
125	0x3d37370c	0.04473023
126	0x3d6c633e	0.057711832
127	0x3b252b4a	0.0025202804
128	0x3b034dd3	0.00200354
129	0xbbd4f41a	-0.0064988257
130	0xbd5f0e3b	-0.05445693
131	0x3ac4804f	0.0014991852
132	0xbc831903	-0.016003137
133	0x3cdcc64f	0.02695003
134	0x3c72b917	0.014814637
135	0xbb1f6388	-0.00243208
136	0x337eea46	5.9352054e-08
137	0xb41ea287	-1.4774024e-07
138	0x3b727fec	0.0037002517
139	0xbb0a29cc	-0.0021082042
140	0xbd58c3cd	-0.052921105
141	0x3d3ac34d	0.04559641
142	0x3d5e9a00	0.054346085
143	0x3bb01d8c	0.005374616
144	0xbb98cb76	-0.0046629263
145	0xa816ae9f	-8.364538e-15
146	0x3afe679b	0.0019409539
147	0xb94a3a29	-0.00019285888
148	0x3cc02409	0.023454683
149	0xbd748f7c	-0.05970715
150	0x2f07951c	1.2331153e-10
151	0xb4dc88c9	-4.1077718e-07
152	0x3d8034e9	0.06260092
153	0x3cc952c5	0.0245756
154	0x3b14f784	0.0022730539
155	0x30077593	4.9279797e-10
156	0xbd08f7a9	-0.033439312
157	0xbc5edccd	-0.013602448
158	0xbc996c4f	-0.018728403
159	0xbc072463	-0.008248421
160	0x3d080029	0.033203278
161	0xbd1095c4	-0.035299078
162	0x3b7f2410	0.0038931407
163	0xb2882d48	-1.5853075e-08
164	0xbd4f1d5a	-0.0505651
165	0x3615f69b	2.2346273e-06
166	0xbd365b9c	-0.04452096
167	0xbbfa9c44	-0.007648023
168	0xbc105b8b	-0.008810888
169	0x3db8c3bd	0.09021709
170	0x3d0b34a5	0.033985753
171	0xbcde4089	-0.027130382
172	0x3c042cc0	0.00806731
173	0xbd6d6b86	-0.05796387
174	0x3d21d4c2	0.039509542
175	0xaebc3350	-8.558365e-11
176	0xbd4eafd0	-0.050460637
177	0x3d853ebd	0.06506107
178	0x3c87f65f	0.016596971
179	0xbd1f6423	-0.038913857
180	0xbd3186b8	-0.04334137
181	0x3a5bfc57	0.00083917886
182	0x3cf4753a	0.029841054
183	0x3c84a06f	0.016189782
184	0xbd1142d1	-0.03546411
185	0x3a92fdac	0.0011214516
186	0x3dabbf72	0.08386125
187	0x3c414d63	0.011798236
188	0xb2f354ca	-2.832748e-08
189	0x33475e37	4.6418986e-08
190	0x3471a297	2.2504024e-07
191	0xa5d88fa6	-3.7567367e-16
192	0x3ddee794	0.10884014
193	0xb34199bf	-4.5076145e-08
194	0x3d32596b	0.043542307
195	0x3cdbed84	0.026846655
196	0xbcc57eda	-0.02410834
197	0xbe03bf37	-0.12865911
198	0x3cd59d60	0.026076019
199	0xbe4bcec4	-0.19903094
200	0xbd69b333	-0.057055663
201	0xb7852bef	-1.5875294e-05
202	0x352f5751	6.531964e-07
203	0x3c08e2f1	0.008354888
204	0x3b264a19	0.0025373755
205	0x28480411	1.1103112e-14
206	0x3d88a0cb	0.06671294
207	0x3b6af642	0.0035852348
208	0xbc81b904	-0.015835293
209	0x0f43546a	9.6305e-30
210	0xa70689d3	-1.867095e-15
211	0xbdd23559	-0.102640815
212	0x318c7ba0	4.088591e-09
213	0x3b95024f	0.0045473943
214	0x3cead421	0.028665604
215	0xbd1379d7	-0.036004867
216	0x3cff5c81	0.031172039
217	0xbd487076	-0.048935376
218	0x3d37036b	0.044680994
219	0xbd90c28c	-0.07068357
220	0xbc9ddebb	-0.019271245
221	0x3d243a7b	0.040094834
222	0x3b0c49dd	0.002140633
223	0xbda6b0a1	-0.08139158
224	0x11b45760	2.8452842e-28
225	0x9070d1b8	-4.7493216e-29
226	0x3038ce63	6.7232103e-10
227	0x37700237	1.430563e-05
228	0xbe2f6859	-0.17129649
229	0xbd5cddfb	-0.053922635
230	0x3cf4f752	0.029903088
231	0xb8ba1c74	-8.874471e-05
232	0xafa269eb	-2.9542888e-10
233	0xb02e5793	-6.342528e-10
234	0xbc47f57b	-0.012204523
235	0x3d331b9c	0.043727502
236	0xbcf2e60c	-0.02965071
237	0xbb38ccae	-0.002819817
238	0xbcdc9264	-0.026925273
239	0x31210f3a	2.3437239e-09
240	0x3d1cc833	0.038276862
241	0x3d77bdf5	0.06048389
242	0x3d786ff1	0.06065363
243	0xbd28a24e	-0.04117041
244	0xbd38e160	-0.04513681
245	0xbd11d503	-0.035603534
246	0x3d8eec0f	0.06978618
247	0x3d8f7303	0.070043586
248	0x36ce448b	6.147258e-06
249	0xbd093bcc	-0.033504292
250	0x3ac62073	0.0015115872
251	0xbd19ea01	-0.03757668
252	0xbd1fd90c	-0.03902535
253	0x3cb94130	0.022614092
254	0x3d5b5bf6	0.053554498
255	0x3d6a696c	0.057229444

trunk_net.net.6.bias f4 [160]
0	0xbd3366c1	-0.043799166
1	0xbc4004e2	-0.011719914
2	0xbd92207c	-0.07135102
3	0x3b5d54ed	0.0033772544
4	0xbb85bd17	-0.004081379
5	0xbc14ee7d	-0.009090063
6	0xb938d9cd	-0.00017628745
7	0x32056874	7.765369e-09
8	0xbd8a125f	-0.06741785
9	0x3ba24629	0.0049522114
10	0x3d51a040	0.051178217
11	0xbd9af0d9	-0.07565469
12	0xae0b09c3	-3.161361e-11
13	0xbd07d5bc	-0.033162817
14	0x3d267bae	0.040645294
15	0xba07fed0	-0.00051878113
16	0x3d5a597e	0.053308003
17	0x3d3f91fc	0.04677008
18	0x3c471c14	0.01215269
19	0xb2e5067e	-2.6662061e-08
20	0x3d9282d1	0.071538575
21	0x3d8d3c28	0.068962395
22	0x3d4d3468	0.050098807
23	0x3d09e2dc	0.033663616
24	0xbd48c7b2	-0.04901857
25	0x3c89bdef	0.0168142
26	0x3d2304c8	0.03979948
27	0x3d615860	0.05501592
28	0x3ce6ce24	0.028174467
29	0x3cb9e47f	0.022691963
30	0xbbee4bef	-0.0072722356
31	0xb316e35b	-3.5131375e-08
32	0x3d8a54a2	0.06754424
33	0xbc005c71	-0.00783454
34	0xba2480ea	-0.0006275313
35	0xbd879bb1	-0.06621493
36	0x3d409c56	0.047024094
37	0x3d11e5f6	0.0356197
38	0x3b8e5c56	0.0043445034
39	0xbc895b14	-0.016767062
40	0x3d81b3c3	0.06333115
41	0x3ca74559	0.02041881
42	0xb5b62e23	-1.3573484e-06
43	0xbbe888e2	-0.007096396
44	0xb41e2fb5	-1.4732252e-07
45	0xbd151805	-0.03639986
46	0xbd59f46e	-0.053211622
47	0xbc944e40	-0.018103719
48	0xbb9dbce0	-0.0048137754
49	0xbc1422ad	-0.0090414705
50	0x90d26962	-8.299276e-29
51	0x3d6f022f	0.05835169
52	0x3d157bd3	0.03649504
53	0xbc926c14	-0.017873801
54	0xb86488dd	-5.44869e-05
55	0x3ce5a40c	0.028032325
56	0xbbc4da72	-0.006007486
57	0xbb5cebd7	-0.0033709907
58	0x3c5190e2	0.01279089
59	0x3d6cd681	0.057821754
60	0xbd79b246	-0.06096103
61	0xbc540949	-0.012941667
62	0x3c092f19	0.008373045
63	0x3b9a6a18	0.0047123544
64	0x3cc8ff45	0.024535784
65	0xbd9fdd31	-0.07805861
66	0x3cf1c076	0.029510718
67	0x3cde794e	0.027157452
68	0xbc9b4706	-0.018954765
69	0x3d9ae650	0.0756346
70	0x3c9277d4	0.017879404
71	0xb54de9ed	-7.670886e-07
72	0xbd59890c	-0.053109214
73	0xbbb988fc	-0.0056620818
74	0x3cef82e5	0.02923722
75	0xbd7d39d6	-0.061822735
76	0xbcfd5ded	-0.030928576
77	0x3d1a242c	0.037632152
78	0xbd81b3ab	-0.06333097
79	0xbc9de1fe	-0.0192728
80	0x3c2ac874	0.010423768
81	0xbd5f8f58	-0.054580063
82	0x3d270f54	0.040786102
83	0xbd25f05f	-0.04051244
84	0x3d47ac74	0.04874845
85	0xb1730270	-3.536254e-09
86	0xbb458722	-0.003014036
87	0x3d33f751	0.04393703
88	0x3d8944ac	0.06702551
89	0x3cfe8f0a	0.031074066
90	0xbd16694b	-0.03672151
91	0xbd4663db	-0.048435073
92	0xbc2986bd	-0.0103470655
93	0xbd8a0ea7	-0.06741076
94	0xbd5ba982	-0.053628452
95	0xbd88ff98	-0.06689376
96	0x3ce3dce2	0.027815286
97	0x3ca0be74	0.019622065
98	0xbbb825b8	-0.005619731
99	0xbb77d311	-0.0037815014
100	0xbd4dd3df	-0.050250884
101	0x3d033675	0.032034356
102	0x3d5a49c4	0.053293005
103	0xbd18e9e6	-0.037332438
104	0x3cc9b5b7	0.024622781
105	0xb5b6b106	-1.3611577e-06
106	0xbc98cbf8	-0.018651947
107	0x3ca3746c	0.019952975
108	0x3d1a4195	0.0376602
109	0xba7c749c	-0.0009630413
110	0xb6a5300d	-4.922977e-06
111	0xbd53ceb1	-0.05171079
112	0xbb2ad14f	-0.00260647
113	0x3d6614e4	0.056172267
114	0x3d408a40	0.047006845
115	0xbd51bcd4	-0.05120547
116	0xbcc5e16e	-0.024155345
117	0x3d86b137	0.0657677
118	0xbcb0195c	-0.021496467
119	0xbc0dfd41	-0.0086663375
120	0xbcc3d35f	-0.0239045
121	0xbd988341	-0.0744691
122	0xbd8e6f7c	-0.06954858
123	0x3d930001	0.07177735
124	0x3c6e8498	0.01455798
125	0x3d8b1ead	0.0679296
126	0xba7401b5	-0.00093081157
127	0x3d80f7ea	0.06297286
128	0xbd973165	-0.07382468
129	0xba6f35c7	-0.000912514
130	0xbbc467f2	-0.0059938366
131	0xb6800ac1	-3.815949e-06
132	0xbcbd214d	-0.023087168
133	0xbd1cb2f8	-0.038256615
134	0xbd6a6fb0	-0.05723542
135	0x3d3d9d8a	0.04629282
136	0x3c9a51a2	0.018837754
137	0xb8e8446c	-0.00011075367
138	0x3d1e1263	0.038591754
139	0xbb21a766	-0.0024666428
140	0x3da85ca3	0.08220794
141	0xbb6ca12a	-0.0036106803
142	0xbd993b04	-0.074819595
143	0xbbb3547c	-0.005472718
144	0x3a7e2aff	0.0009695738
145	0x3d8093cd	0.06278191
146	0x3d2ba9cc	0.041909978
147	0xbc6b9cab	-0.014380614
148	0xbc92cf78	-0.017921194
149	0x3d8bc383	0.068244
150	0x3c0b0ed0	0.008487418
151	0xbc94a01a	-0.018142749
152	0x3bc08947	0.0058757397
153	0xbd331edc	-0.0437306
154	0xbd5d280f	-0.05399328
155	0x3cf52e61	0.029929342
156	0x3c0fad9c	0.008769419
157	0xbca41887	-0.020031227
158	0xbd2310bc	-0.03981088
159	0x3d611872	0.054954953
